{"class_name": "Model", "config": {"name": "retinanet", "layers": [{"name": "input_12", "class_name": "InputLayer", "config": {"batch_input_shape": [null, null, null, 3], "dtype": "float32", "sparse": false, "name": "input_12"}, "inbound_nodes": []}, {"name": "padding_conv12", "class_name": "ZeroPadding2D", "config": {"name": "padding_conv12", "trainable": true, "padding": [[3, 3], [3, 3]], "data_format": "channels_last"}, "inbound_nodes": [[["input_12", 0, 0, {}]]]}, {"name": "conv12", "class_name": "Conv2D", "config": {"name": "conv12", "trainable": true, "filters": 64, "kernel_size": [7, 7], "strides": [2, 2], "padding": "valid", "data_format": "channels_last", "dilation_rate": [1, 1], "activation": "linear", "use_bias": false, "kernel_initializer": {"class_name": "VarianceScaling", "config": {"scale": 1.0, "mode": "fan_avg", "distribution": "uniform", "seed": null}}, "bias_initializer": {"class_name": "Zeros", "config": {}}, "kernel_regularizer": null, "bias_regularizer": null, "activity_regularizer": null, "kernel_constraint": null, "bias_constraint": null}, "inbound_nodes": [[["padding_conv12", 0, 0, {}]]]}, {"name": "bn_conv12", "class_name": "BatchNormalization", "config": {"name": "bn_conv12", "trainable": false, "axis": 3, "momentum": 0.99, "epsilon": 1e-05, "center": true, "scale": true, "beta_initializer": {"class_name": "Zeros", "config": {}}, "gamma_initializer": {"class_name": "Ones", "config": {}}, "moving_mean_initializer": {"class_name": "Zeros", "config": {}}, "moving_variance_initializer": {"class_name": "Ones", "config": {}}, "beta_regularizer": null, "gamma_regularizer": null, "beta_constraint": null, "gamma_constraint": null, "freeze": true}, "inbound_nodes": [[["conv12", 0, 0, {}]]]}, {"name": "conv1_relu2", "class_name": "Activation", "config": {"name": "conv1_relu2", "trainable": true, "activation": "relu"}, "inbound_nodes": [[["bn_conv12", 0, 0, {}]]]}, {"name": "pool12", "class_name": "MaxPooling2D", "config": {"name": "pool12", "trainable": true, "pool_size": [3, 3], "padding": "same", "strides": [2, 2], "data_format": "channels_last"}, "inbound_nodes": [[["conv1_relu2", 0, 0, {}]]]}, {"name": "res2a_branch2a2", "class_name": "Conv2D", "config": {"name": "res2a_branch2a2", "trainable": true, "filters": 64, "kernel_size": [1, 1], "strides": [1, 1], "padding": "valid", "data_format": "channels_last", "dilation_rate": [1, 1], "activation": "linear", "use_bias": false, "kernel_initializer": {"class_name": "VarianceScaling", "config": {"scale": 2.0, "mode": "fan_in", "distribution": "normal", "seed": null}}, "bias_initializer": {"class_name": "Zeros", "config": {}}, "kernel_regularizer": null, "bias_regularizer": null, "activity_regularizer": null, "kernel_constraint": null, "bias_constraint": null}, "inbound_nodes": [[["pool12", 0, 0, {}]]]}, {"name": "bn2a_branch2a2", "class_name": "BatchNormalization", "config": {"name": "bn2a_branch2a2", "trainable": false, "axis": 3, "momentum": 0.99, "epsilon": 1e-05, "center": true, "scale": true, "beta_initializer": {"class_name": "Zeros", "config": {}}, "gamma_initializer": {"class_name": "Ones", "config": {}}, "moving_mean_initializer": {"class_name": "Zeros", "config": {}}, "moving_variance_initializer": {"class_name": "Ones", "config": {}}, "beta_regularizer": null, "gamma_regularizer": null, "beta_constraint": null, "gamma_constraint": null, "freeze": true}, "inbound_nodes": [[["res2a_branch2a2", 0, 0, {}]]]}, {"name": "res2a_branch2a_relu2", "class_name": "Activation", "config": {"name": "res2a_branch2a_relu2", "trainable": true, "activation": "relu"}, "inbound_nodes": [[["bn2a_branch2a2", 0, 0, {}]]]}, {"name": "padding2a_branch2b2", "class_name": "ZeroPadding2D", "config": {"name": "padding2a_branch2b2", "trainable": true, "padding": [[1, 1], [1, 1]], "data_format": "channels_last"}, "inbound_nodes": [[["res2a_branch2a_relu2", 0, 0, {}]]]}, {"name": "res2a_branch2b2", "class_name": "Conv2D", "config": {"name": "res2a_branch2b2", "trainable": true, "filters": 64, "kernel_size": [3, 3], "strides": [1, 1], "padding": "valid", "data_format": "channels_last", "dilation_rate": [1, 1], "activation": "linear", "use_bias": false, "kernel_initializer": {"class_name": "VarianceScaling", "config": {"scale": 2.0, "mode": "fan_in", "distribution": "normal", "seed": null}}, "bias_initializer": {"class_name": "Zeros", "config": {}}, "kernel_regularizer": null, "bias_regularizer": null, "activity_regularizer": null, "kernel_constraint": null, "bias_constraint": null}, "inbound_nodes": [[["padding2a_branch2b2", 0, 0, {}]]]}, {"name": "bn2a_branch2b2", "class_name": "BatchNormalization", "config": {"name": "bn2a_branch2b2", "trainable": false, "axis": 3, "momentum": 0.99, "epsilon": 1e-05, "center": true, "scale": true, "beta_initializer": {"class_name": "Zeros", "config": {}}, "gamma_initializer": {"class_name": "Ones", "config": {}}, "moving_mean_initializer": {"class_name": "Zeros", "config": {}}, "moving_variance_initializer": {"class_name": "Ones", "config": {}}, "beta_regularizer": null, "gamma_regularizer": null, "beta_constraint": null, "gamma_constraint": null, "freeze": true}, "inbound_nodes": [[["res2a_branch2b2", 0, 0, {}]]]}, {"name": "res2a_branch2b_relu2", "class_name": "Activation", "config": {"name": "res2a_branch2b_relu2", "trainable": true, "activation": "relu"}, "inbound_nodes": [[["bn2a_branch2b2", 0, 0, {}]]]}, {"name": "res2a_branch2c2", "class_name": "Conv2D", "config": {"name": "res2a_branch2c2", "trainable": true, "filters": 256, "kernel_size": [1, 1], "strides": [1, 1], "padding": "valid", "data_format": "channels_last", "dilation_rate": [1, 1], "activation": "linear", "use_bias": false, "kernel_initializer": {"class_name": "VarianceScaling", "config": {"scale": 2.0, "mode": "fan_in", "distribution": "normal", "seed": null}}, "bias_initializer": {"class_name": "Zeros", "config": {}}, "kernel_regularizer": null, "bias_regularizer": null, "activity_regularizer": null, "kernel_constraint": null, "bias_constraint": null}, "inbound_nodes": [[["res2a_branch2b_relu2", 0, 0, {}]]]}, {"name": "res2a_branch12", "class_name": "Conv2D", "config": {"name": "res2a_branch12", "trainable": true, "filters": 256, "kernel_size": [1, 1], "strides": [1, 1], "padding": "valid", "data_format": "channels_last", "dilation_rate": [1, 1], "activation": "linear", "use_bias": false, "kernel_initializer": {"class_name": "VarianceScaling", "config": {"scale": 2.0, "mode": "fan_in", "distribution": "normal", "seed": null}}, "bias_initializer": {"class_name": "Zeros", "config": {}}, "kernel_regularizer": null, "bias_regularizer": null, "activity_regularizer": null, "kernel_constraint": null, "bias_constraint": null}, "inbound_nodes": [[["pool12", 0, 0, {}]]]}, {"name": "bn2a_branch2c2", "class_name": "BatchNormalization", "config": {"name": "bn2a_branch2c2", "trainable": false, "axis": 3, "momentum": 0.99, "epsilon": 1e-05, "center": true, "scale": true, "beta_initializer": {"class_name": "Zeros", "config": {}}, "gamma_initializer": {"class_name": "Ones", "config": {}}, "moving_mean_initializer": {"class_name": "Zeros", "config": {}}, "moving_variance_initializer": {"class_name": "Ones", "config": {}}, "beta_regularizer": null, "gamma_regularizer": null, "beta_constraint": null, "gamma_constraint": null, "freeze": true}, "inbound_nodes": [[["res2a_branch2c2", 0, 0, {}]]]}, {"name": "bn2a_branch12", "class_name": "BatchNormalization", "config": {"name": "bn2a_branch12", "trainable": false, "axis": 3, "momentum": 0.99, "epsilon": 1e-05, "center": true, "scale": true, "beta_initializer": {"class_name": "Zeros", "config": {}}, "gamma_initializer": {"class_name": "Ones", "config": {}}, "moving_mean_initializer": {"class_name": "Zeros", "config": {}}, "moving_variance_initializer": {"class_name": "Ones", "config": {}}, "beta_regularizer": null, "gamma_regularizer": null, "beta_constraint": null, "gamma_constraint": null, "freeze": true}, "inbound_nodes": [[["res2a_branch12", 0, 0, {}]]]}, {"name": "res2a2", "class_name": "Add", "config": {"name": "res2a2", "trainable": true}, "inbound_nodes": [[["bn2a_branch2c2", 0, 0, {}], ["bn2a_branch12", 0, 0, {}]]]}, {"name": "res2a_relu2", "class_name": "Activation", "config": {"name": "res2a_relu2", "trainable": true, "activation": "relu"}, "inbound_nodes": [[["res2a2", 0, 0, {}]]]}, {"name": "res2b_branch2a2", "class_name": "Conv2D", "config": {"name": "res2b_branch2a2", "trainable": true, "filters": 64, "kernel_size": [1, 1], "strides": [1, 1], "padding": "valid", "data_format": "channels_last", "dilation_rate": [1, 1], "activation": "linear", "use_bias": false, "kernel_initializer": {"class_name": "VarianceScaling", "config": {"scale": 2.0, "mode": "fan_in", "distribution": "normal", "seed": null}}, "bias_initializer": {"class_name": "Zeros", "config": {}}, "kernel_regularizer": null, "bias_regularizer": null, "activity_regularizer": null, "kernel_constraint": null, "bias_constraint": null}, "inbound_nodes": [[["res2a_relu2", 0, 0, {}]]]}, {"name": "bn2b_branch2a2", "class_name": "BatchNormalization", "config": {"name": "bn2b_branch2a2", "trainable": false, "axis": 3, "momentum": 0.99, "epsilon": 1e-05, "center": true, "scale": true, "beta_initializer": {"class_name": "Zeros", "config": {}}, "gamma_initializer": {"class_name": "Ones", "config": {}}, "moving_mean_initializer": {"class_name": "Zeros", "config": {}}, "moving_variance_initializer": {"class_name": "Ones", "config": {}}, "beta_regularizer": null, "gamma_regularizer": null, "beta_constraint": null, "gamma_constraint": null, "freeze": true}, "inbound_nodes": [[["res2b_branch2a2", 0, 0, {}]]]}, {"name": "res2b_branch2a_relu2", "class_name": "Activation", "config": {"name": "res2b_branch2a_relu2", "trainable": true, "activation": "relu"}, "inbound_nodes": [[["bn2b_branch2a2", 0, 0, {}]]]}, {"name": "padding2b_branch2b2", "class_name": "ZeroPadding2D", "config": {"name": "padding2b_branch2b2", "trainable": true, "padding": [[1, 1], [1, 1]], "data_format": "channels_last"}, "inbound_nodes": [[["res2b_branch2a_relu2", 0, 0, {}]]]}, {"name": "res2b_branch2b2", "class_name": "Conv2D", "config": {"name": "res2b_branch2b2", "trainable": true, "filters": 64, "kernel_size": [3, 3], "strides": [1, 1], "padding": "valid", "data_format": "channels_last", "dilation_rate": [1, 1], "activation": "linear", "use_bias": false, "kernel_initializer": {"class_name": "VarianceScaling", "config": {"scale": 2.0, "mode": "fan_in", "distribution": "normal", "seed": null}}, "bias_initializer": {"class_name": "Zeros", "config": {}}, "kernel_regularizer": null, "bias_regularizer": null, "activity_regularizer": null, "kernel_constraint": null, "bias_constraint": null}, "inbound_nodes": [[["padding2b_branch2b2", 0, 0, {}]]]}, {"name": "bn2b_branch2b2", "class_name": "BatchNormalization", "config": {"name": "bn2b_branch2b2", "trainable": false, "axis": 3, "momentum": 0.99, "epsilon": 1e-05, "center": true, "scale": true, "beta_initializer": {"class_name": "Zeros", "config": {}}, "gamma_initializer": {"class_name": "Ones", "config": {}}, "moving_mean_initializer": {"class_name": "Zeros", "config": {}}, "moving_variance_initializer": {"class_name": "Ones", "config": {}}, "beta_regularizer": null, "gamma_regularizer": null, "beta_constraint": null, "gamma_constraint": null, "freeze": true}, "inbound_nodes": [[["res2b_branch2b2", 0, 0, {}]]]}, {"name": "res2b_branch2b_relu2", "class_name": "Activation", "config": {"name": "res2b_branch2b_relu2", "trainable": true, "activation": "relu"}, "inbound_nodes": [[["bn2b_branch2b2", 0, 0, {}]]]}, {"name": "res2b_branch2c2", "class_name": "Conv2D", "config": {"name": "res2b_branch2c2", "trainable": true, "filters": 256, "kernel_size": [1, 1], "strides": [1, 1], "padding": "valid", "data_format": "channels_last", "dilation_rate": [1, 1], "activation": "linear", "use_bias": false, "kernel_initializer": {"class_name": "VarianceScaling", "config": {"scale": 2.0, "mode": "fan_in", "distribution": "normal", "seed": null}}, "bias_initializer": {"class_name": "Zeros", "config": {}}, "kernel_regularizer": null, "bias_regularizer": null, "activity_regularizer": null, "kernel_constraint": null, "bias_constraint": null}, "inbound_nodes": [[["res2b_branch2b_relu2", 0, 0, {}]]]}, {"name": "bn2b_branch2c2", "class_name": "BatchNormalization", "config": {"name": "bn2b_branch2c2", "trainable": false, "axis": 3, "momentum": 0.99, "epsilon": 1e-05, "center": true, "scale": true, "beta_initializer": {"class_name": "Zeros", "config": {}}, "gamma_initializer": {"class_name": "Ones", "config": {}}, "moving_mean_initializer": {"class_name": "Zeros", "config": {}}, "moving_variance_initializer": {"class_name": "Ones", "config": {}}, "beta_regularizer": null, "gamma_regularizer": null, "beta_constraint": null, "gamma_constraint": null, "freeze": true}, "inbound_nodes": [[["res2b_branch2c2", 0, 0, {}]]]}, {"name": "res2b2", "class_name": "Add", "config": {"name": "res2b2", "trainable": true}, "inbound_nodes": [[["bn2b_branch2c2", 0, 0, {}], ["res2a_relu2", 0, 0, {}]]]}, {"name": "res2b_relu2", "class_name": "Activation", "config": {"name": "res2b_relu2", "trainable": true, "activation": "relu"}, "inbound_nodes": [[["res2b2", 0, 0, {}]]]}, {"name": "res2c_branch2a2", "class_name": "Conv2D", "config": {"name": "res2c_branch2a2", "trainable": true, "filters": 64, "kernel_size": [1, 1], "strides": [1, 1], "padding": "valid", "data_format": "channels_last", "dilation_rate": [1, 1], "activation": "linear", "use_bias": false, "kernel_initializer": {"class_name": "VarianceScaling", "config": {"scale": 2.0, "mode": "fan_in", "distribution": "normal", "seed": null}}, "bias_initializer": {"class_name": "Zeros", "config": {}}, "kernel_regularizer": null, "bias_regularizer": null, "activity_regularizer": null, "kernel_constraint": null, "bias_constraint": null}, "inbound_nodes": [[["res2b_relu2", 0, 0, {}]]]}, {"name": "bn2c_branch2a2", "class_name": "BatchNormalization", "config": {"name": "bn2c_branch2a2", "trainable": false, "axis": 3, "momentum": 0.99, "epsilon": 1e-05, "center": true, "scale": true, "beta_initializer": {"class_name": "Zeros", "config": {}}, "gamma_initializer": {"class_name": "Ones", "config": {}}, "moving_mean_initializer": {"class_name": "Zeros", "config": {}}, "moving_variance_initializer": {"class_name": "Ones", "config": {}}, "beta_regularizer": null, "gamma_regularizer": null, "beta_constraint": null, "gamma_constraint": null, "freeze": true}, "inbound_nodes": [[["res2c_branch2a2", 0, 0, {}]]]}, {"name": "res2c_branch2a_relu2", "class_name": "Activation", "config": {"name": "res2c_branch2a_relu2", "trainable": true, "activation": "relu"}, "inbound_nodes": [[["bn2c_branch2a2", 0, 0, {}]]]}, {"name": "padding2c_branch2b2", "class_name": "ZeroPadding2D", "config": {"name": "padding2c_branch2b2", "trainable": true, "padding": [[1, 1], [1, 1]], "data_format": "channels_last"}, "inbound_nodes": [[["res2c_branch2a_relu2", 0, 0, {}]]]}, {"name": "res2c_branch2b2", "class_name": "Conv2D", "config": {"name": "res2c_branch2b2", "trainable": true, "filters": 64, "kernel_size": [3, 3], "strides": [1, 1], "padding": "valid", "data_format": "channels_last", "dilation_rate": [1, 1], "activation": "linear", "use_bias": false, "kernel_initializer": {"class_name": "VarianceScaling", "config": {"scale": 2.0, "mode": "fan_in", "distribution": "normal", "seed": null}}, "bias_initializer": {"class_name": "Zeros", "config": {}}, "kernel_regularizer": null, "bias_regularizer": null, "activity_regularizer": null, "kernel_constraint": null, "bias_constraint": null}, "inbound_nodes": [[["padding2c_branch2b2", 0, 0, {}]]]}, {"name": "bn2c_branch2b2", "class_name": "BatchNormalization", "config": {"name": "bn2c_branch2b2", "trainable": false, "axis": 3, "momentum": 0.99, "epsilon": 1e-05, "center": true, "scale": true, "beta_initializer": {"class_name": "Zeros", "config": {}}, "gamma_initializer": {"class_name": "Ones", "config": {}}, "moving_mean_initializer": {"class_name": "Zeros", "config": {}}, "moving_variance_initializer": {"class_name": "Ones", "config": {}}, "beta_regularizer": null, "gamma_regularizer": null, "beta_constraint": null, "gamma_constraint": null, "freeze": true}, "inbound_nodes": [[["res2c_branch2b2", 0, 0, {}]]]}, {"name": "res2c_branch2b_relu2", "class_name": "Activation", "config": {"name": "res2c_branch2b_relu2", "trainable": true, "activation": "relu"}, "inbound_nodes": [[["bn2c_branch2b2", 0, 0, {}]]]}, {"name": "res2c_branch2c2", "class_name": "Conv2D", "config": {"name": "res2c_branch2c2", "trainable": true, "filters": 256, "kernel_size": [1, 1], "strides": [1, 1], "padding": "valid", "data_format": "channels_last", "dilation_rate": [1, 1], "activation": "linear", "use_bias": false, "kernel_initializer": {"class_name": "VarianceScaling", "config": {"scale": 2.0, "mode": "fan_in", "distribution": "normal", "seed": null}}, "bias_initializer": {"class_name": "Zeros", "config": {}}, "kernel_regularizer": null, "bias_regularizer": null, "activity_regularizer": null, "kernel_constraint": null, "bias_constraint": null}, "inbound_nodes": [[["res2c_branch2b_relu2", 0, 0, {}]]]}, {"name": "bn2c_branch2c2", "class_name": "BatchNormalization", "config": {"name": "bn2c_branch2c2", "trainable": false, "axis": 3, "momentum": 0.99, "epsilon": 1e-05, "center": true, "scale": true, "beta_initializer": {"class_name": "Zeros", "config": {}}, "gamma_initializer": {"class_name": "Ones", "config": {}}, "moving_mean_initializer": {"class_name": "Zeros", "config": {}}, "moving_variance_initializer": {"class_name": "Ones", "config": {}}, "beta_regularizer": null, "gamma_regularizer": null, "beta_constraint": null, "gamma_constraint": null, "freeze": true}, "inbound_nodes": [[["res2c_branch2c2", 0, 0, {}]]]}, {"name": "res2c2", "class_name": "Add", "config": {"name": "res2c2", "trainable": true}, "inbound_nodes": [[["bn2c_branch2c2", 0, 0, {}], ["res2b_relu2", 0, 0, {}]]]}, {"name": "res2c_relu2", "class_name": "Activation", "config": {"name": "res2c_relu2", "trainable": true, "activation": "relu"}, "inbound_nodes": [[["res2c2", 0, 0, {}]]]}, {"name": "res3a_branch2a2", "class_name": "Conv2D", "config": {"name": "res3a_branch2a2", "trainable": true, "filters": 128, "kernel_size": [1, 1], "strides": [2, 2], "padding": "valid", "data_format": "channels_last", "dilation_rate": [1, 1], "activation": "linear", "use_bias": false, "kernel_initializer": {"class_name": "VarianceScaling", "config": {"scale": 2.0, "mode": "fan_in", "distribution": "normal", "seed": null}}, "bias_initializer": {"class_name": "Zeros", "config": {}}, "kernel_regularizer": null, "bias_regularizer": null, "activity_regularizer": null, "kernel_constraint": null, "bias_constraint": null}, "inbound_nodes": [[["res2c_relu2", 0, 0, {}]]]}, {"name": "bn3a_branch2a2", "class_name": "BatchNormalization", "config": {"name": "bn3a_branch2a2", "trainable": false, "axis": 3, "momentum": 0.99, "epsilon": 1e-05, "center": true, "scale": true, "beta_initializer": {"class_name": "Zeros", "config": {}}, "gamma_initializer": {"class_name": "Ones", "config": {}}, "moving_mean_initializer": {"class_name": "Zeros", "config": {}}, "moving_variance_initializer": {"class_name": "Ones", "config": {}}, "beta_regularizer": null, "gamma_regularizer": null, "beta_constraint": null, "gamma_constraint": null, "freeze": true}, "inbound_nodes": [[["res3a_branch2a2", 0, 0, {}]]]}, {"name": "res3a_branch2a_relu2", "class_name": "Activation", "config": {"name": "res3a_branch2a_relu2", "trainable": true, "activation": "relu"}, "inbound_nodes": [[["bn3a_branch2a2", 0, 0, {}]]]}, {"name": "padding3a_branch2b2", "class_name": "ZeroPadding2D", "config": {"name": "padding3a_branch2b2", "trainable": true, "padding": [[1, 1], [1, 1]], "data_format": "channels_last"}, "inbound_nodes": [[["res3a_branch2a_relu2", 0, 0, {}]]]}, {"name": "res3a_branch2b2", "class_name": "Conv2D", "config": {"name": "res3a_branch2b2", "trainable": true, "filters": 128, "kernel_size": [3, 3], "strides": [1, 1], "padding": "valid", "data_format": "channels_last", "dilation_rate": [1, 1], "activation": "linear", "use_bias": false, "kernel_initializer": {"class_name": "VarianceScaling", "config": {"scale": 2.0, "mode": "fan_in", "distribution": "normal", "seed": null}}, "bias_initializer": {"class_name": "Zeros", "config": {}}, "kernel_regularizer": null, "bias_regularizer": null, "activity_regularizer": null, "kernel_constraint": null, "bias_constraint": null}, "inbound_nodes": [[["padding3a_branch2b2", 0, 0, {}]]]}, {"name": "bn3a_branch2b2", "class_name": "BatchNormalization", "config": {"name": "bn3a_branch2b2", "trainable": false, "axis": 3, "momentum": 0.99, "epsilon": 1e-05, "center": true, "scale": true, "beta_initializer": {"class_name": "Zeros", "config": {}}, "gamma_initializer": {"class_name": "Ones", "config": {}}, "moving_mean_initializer": {"class_name": "Zeros", "config": {}}, "moving_variance_initializer": {"class_name": "Ones", "config": {}}, "beta_regularizer": null, "gamma_regularizer": null, "beta_constraint": null, "gamma_constraint": null, "freeze": true}, "inbound_nodes": [[["res3a_branch2b2", 0, 0, {}]]]}, {"name": "res3a_branch2b_relu2", "class_name": "Activation", "config": {"name": "res3a_branch2b_relu2", "trainable": true, "activation": "relu"}, "inbound_nodes": [[["bn3a_branch2b2", 0, 0, {}]]]}, {"name": "res3a_branch2c2", "class_name": "Conv2D", "config": {"name": "res3a_branch2c2", "trainable": true, "filters": 512, "kernel_size": [1, 1], "strides": [1, 1], "padding": "valid", "data_format": "channels_last", "dilation_rate": [1, 1], "activation": "linear", "use_bias": false, "kernel_initializer": {"class_name": "VarianceScaling", "config": {"scale": 2.0, "mode": "fan_in", "distribution": "normal", "seed": null}}, "bias_initializer": {"class_name": "Zeros", "config": {}}, "kernel_regularizer": null, "bias_regularizer": null, "activity_regularizer": null, "kernel_constraint": null, "bias_constraint": null}, "inbound_nodes": [[["res3a_branch2b_relu2", 0, 0, {}]]]}, {"name": "res3a_branch12", "class_name": "Conv2D", "config": {"name": "res3a_branch12", "trainable": true, "filters": 512, "kernel_size": [1, 1], "strides": [2, 2], "padding": "valid", "data_format": "channels_last", "dilation_rate": [1, 1], "activation": "linear", "use_bias": false, "kernel_initializer": {"class_name": "VarianceScaling", "config": {"scale": 2.0, "mode": "fan_in", "distribution": "normal", "seed": null}}, "bias_initializer": {"class_name": "Zeros", "config": {}}, "kernel_regularizer": null, "bias_regularizer": null, "activity_regularizer": null, "kernel_constraint": null, "bias_constraint": null}, "inbound_nodes": [[["res2c_relu2", 0, 0, {}]]]}, {"name": "bn3a_branch2c2", "class_name": "BatchNormalization", "config": {"name": "bn3a_branch2c2", "trainable": false, "axis": 3, "momentum": 0.99, "epsilon": 1e-05, "center": true, "scale": true, "beta_initializer": {"class_name": "Zeros", "config": {}}, "gamma_initializer": {"class_name": "Ones", "config": {}}, "moving_mean_initializer": {"class_name": "Zeros", "config": {}}, "moving_variance_initializer": {"class_name": "Ones", "config": {}}, "beta_regularizer": null, "gamma_regularizer": null, "beta_constraint": null, "gamma_constraint": null, "freeze": true}, "inbound_nodes": [[["res3a_branch2c2", 0, 0, {}]]]}, {"name": "bn3a_branch12", "class_name": "BatchNormalization", "config": {"name": "bn3a_branch12", "trainable": false, "axis": 3, "momentum": 0.99, "epsilon": 1e-05, "center": true, "scale": true, "beta_initializer": {"class_name": "Zeros", "config": {}}, "gamma_initializer": {"class_name": "Ones", "config": {}}, "moving_mean_initializer": {"class_name": "Zeros", "config": {}}, "moving_variance_initializer": {"class_name": "Ones", "config": {}}, "beta_regularizer": null, "gamma_regularizer": null, "beta_constraint": null, "gamma_constraint": null, "freeze": true}, "inbound_nodes": [[["res3a_branch12", 0, 0, {}]]]}, {"name": "res3a2", "class_name": "Add", "config": {"name": "res3a2", "trainable": true}, "inbound_nodes": [[["bn3a_branch2c2", 0, 0, {}], ["bn3a_branch12", 0, 0, {}]]]}, {"name": "res3a_relu2", "class_name": "Activation", "config": {"name": "res3a_relu2", "trainable": true, "activation": "relu"}, "inbound_nodes": [[["res3a2", 0, 0, {}]]]}, {"name": "res3b1_branch2a2", "class_name": "Conv2D", "config": {"name": "res3b1_branch2a2", "trainable": true, "filters": 128, "kernel_size": [1, 1], "strides": [1, 1], "padding": "valid", "data_format": "channels_last", "dilation_rate": [1, 1], "activation": "linear", "use_bias": false, "kernel_initializer": {"class_name": "VarianceScaling", "config": {"scale": 2.0, "mode": "fan_in", "distribution": "normal", "seed": null}}, "bias_initializer": {"class_name": "Zeros", "config": {}}, "kernel_regularizer": null, "bias_regularizer": null, "activity_regularizer": null, "kernel_constraint": null, "bias_constraint": null}, "inbound_nodes": [[["res3a_relu2", 0, 0, {}]]]}, {"name": "bn3b1_branch2a2", "class_name": "BatchNormalization", "config": {"name": "bn3b1_branch2a2", "trainable": false, "axis": 3, "momentum": 0.99, "epsilon": 1e-05, "center": true, "scale": true, "beta_initializer": {"class_name": "Zeros", "config": {}}, "gamma_initializer": {"class_name": "Ones", "config": {}}, "moving_mean_initializer": {"class_name": "Zeros", "config": {}}, "moving_variance_initializer": {"class_name": "Ones", "config": {}}, "beta_regularizer": null, "gamma_regularizer": null, "beta_constraint": null, "gamma_constraint": null, "freeze": true}, "inbound_nodes": [[["res3b1_branch2a2", 0, 0, {}]]]}, {"name": "res3b1_branch2a_relu2", "class_name": "Activation", "config": {"name": "res3b1_branch2a_relu2", "trainable": true, "activation": "relu"}, "inbound_nodes": [[["bn3b1_branch2a2", 0, 0, {}]]]}, {"name": "padding3b1_branch2b2", "class_name": "ZeroPadding2D", "config": {"name": "padding3b1_branch2b2", "trainable": true, "padding": [[1, 1], [1, 1]], "data_format": "channels_last"}, "inbound_nodes": [[["res3b1_branch2a_relu2", 0, 0, {}]]]}, {"name": "res3b1_branch2b2", "class_name": "Conv2D", "config": {"name": "res3b1_branch2b2", "trainable": true, "filters": 128, "kernel_size": [3, 3], "strides": [1, 1], "padding": "valid", "data_format": "channels_last", "dilation_rate": [1, 1], "activation": "linear", "use_bias": false, "kernel_initializer": {"class_name": "VarianceScaling", "config": {"scale": 2.0, "mode": "fan_in", "distribution": "normal", "seed": null}}, "bias_initializer": {"class_name": "Zeros", "config": {}}, "kernel_regularizer": null, "bias_regularizer": null, "activity_regularizer": null, "kernel_constraint": null, "bias_constraint": null}, "inbound_nodes": [[["padding3b1_branch2b2", 0, 0, {}]]]}, {"name": "bn3b1_branch2b2", "class_name": "BatchNormalization", "config": {"name": "bn3b1_branch2b2", "trainable": false, "axis": 3, "momentum": 0.99, "epsilon": 1e-05, "center": true, "scale": true, "beta_initializer": {"class_name": "Zeros", "config": {}}, "gamma_initializer": {"class_name": "Ones", "config": {}}, "moving_mean_initializer": {"class_name": "Zeros", "config": {}}, "moving_variance_initializer": {"class_name": "Ones", "config": {}}, "beta_regularizer": null, "gamma_regularizer": null, "beta_constraint": null, "gamma_constraint": null, "freeze": true}, "inbound_nodes": [[["res3b1_branch2b2", 0, 0, {}]]]}, {"name": "res3b1_branch2b_relu2", "class_name": "Activation", "config": {"name": "res3b1_branch2b_relu2", "trainable": true, "activation": "relu"}, "inbound_nodes": [[["bn3b1_branch2b2", 0, 0, {}]]]}, {"name": "res3b1_branch2c2", "class_name": "Conv2D", "config": {"name": "res3b1_branch2c2", "trainable": true, "filters": 512, "kernel_size": [1, 1], "strides": [1, 1], "padding": "valid", "data_format": "channels_last", "dilation_rate": [1, 1], "activation": "linear", "use_bias": false, "kernel_initializer": {"class_name": "VarianceScaling", "config": {"scale": 2.0, "mode": "fan_in", "distribution": "normal", "seed": null}}, "bias_initializer": {"class_name": "Zeros", "config": {}}, "kernel_regularizer": null, "bias_regularizer": null, "activity_regularizer": null, "kernel_constraint": null, "bias_constraint": null}, "inbound_nodes": [[["res3b1_branch2b_relu2", 0, 0, {}]]]}, {"name": "bn3b1_branch2c2", "class_name": "BatchNormalization", "config": {"name": "bn3b1_branch2c2", "trainable": false, "axis": 3, "momentum": 0.99, "epsilon": 1e-05, "center": true, "scale": true, "beta_initializer": {"class_name": "Zeros", "config": {}}, "gamma_initializer": {"class_name": "Ones", "config": {}}, "moving_mean_initializer": {"class_name": "Zeros", "config": {}}, "moving_variance_initializer": {"class_name": "Ones", "config": {}}, "beta_regularizer": null, "gamma_regularizer": null, "beta_constraint": null, "gamma_constraint": null, "freeze": true}, "inbound_nodes": [[["res3b1_branch2c2", 0, 0, {}]]]}, {"name": "res3b12", "class_name": "Add", "config": {"name": "res3b12", "trainable": true}, "inbound_nodes": [[["bn3b1_branch2c2", 0, 0, {}], ["res3a_relu2", 0, 0, {}]]]}, {"name": "res3b1_relu2", "class_name": "Activation", "config": {"name": "res3b1_relu2", "trainable": true, "activation": "relu"}, "inbound_nodes": [[["res3b12", 0, 0, {}]]]}, {"name": "res3b2_branch2a2", "class_name": "Conv2D", "config": {"name": "res3b2_branch2a2", "trainable": true, "filters": 128, "kernel_size": [1, 1], "strides": [1, 1], "padding": "valid", "data_format": "channels_last", "dilation_rate": [1, 1], "activation": "linear", "use_bias": false, "kernel_initializer": {"class_name": "VarianceScaling", "config": {"scale": 2.0, "mode": "fan_in", "distribution": "normal", "seed": null}}, "bias_initializer": {"class_name": "Zeros", "config": {}}, "kernel_regularizer": null, "bias_regularizer": null, "activity_regularizer": null, "kernel_constraint": null, "bias_constraint": null}, "inbound_nodes": [[["res3b1_relu2", 0, 0, {}]]]}, {"name": "bn3b2_branch2a2", "class_name": "BatchNormalization", "config": {"name": "bn3b2_branch2a2", "trainable": false, "axis": 3, "momentum": 0.99, "epsilon": 1e-05, "center": true, "scale": true, "beta_initializer": {"class_name": "Zeros", "config": {}}, "gamma_initializer": {"class_name": "Ones", "config": {}}, "moving_mean_initializer": {"class_name": "Zeros", "config": {}}, "moving_variance_initializer": {"class_name": "Ones", "config": {}}, "beta_regularizer": null, "gamma_regularizer": null, "beta_constraint": null, "gamma_constraint": null, "freeze": true}, "inbound_nodes": [[["res3b2_branch2a2", 0, 0, {}]]]}, {"name": "res3b2_branch2a_relu2", "class_name": "Activation", "config": {"name": "res3b2_branch2a_relu2", "trainable": true, "activation": "relu"}, "inbound_nodes": [[["bn3b2_branch2a2", 0, 0, {}]]]}, {"name": "padding3b2_branch2b2", "class_name": "ZeroPadding2D", "config": {"name": "padding3b2_branch2b2", "trainable": true, "padding": [[1, 1], [1, 1]], "data_format": "channels_last"}, "inbound_nodes": [[["res3b2_branch2a_relu2", 0, 0, {}]]]}, {"name": "res3b2_branch2b2", "class_name": "Conv2D", "config": {"name": "res3b2_branch2b2", "trainable": true, "filters": 128, "kernel_size": [3, 3], "strides": [1, 1], "padding": "valid", "data_format": "channels_last", "dilation_rate": [1, 1], "activation": "linear", "use_bias": false, "kernel_initializer": {"class_name": "VarianceScaling", "config": {"scale": 2.0, "mode": "fan_in", "distribution": "normal", "seed": null}}, "bias_initializer": {"class_name": "Zeros", "config": {}}, "kernel_regularizer": null, "bias_regularizer": null, "activity_regularizer": null, "kernel_constraint": null, "bias_constraint": null}, "inbound_nodes": [[["padding3b2_branch2b2", 0, 0, {}]]]}, {"name": "bn3b2_branch2b2", "class_name": "BatchNormalization", "config": {"name": "bn3b2_branch2b2", "trainable": false, "axis": 3, "momentum": 0.99, "epsilon": 1e-05, "center": true, "scale": true, "beta_initializer": {"class_name": "Zeros", "config": {}}, "gamma_initializer": {"class_name": "Ones", "config": {}}, "moving_mean_initializer": {"class_name": "Zeros", "config": {}}, "moving_variance_initializer": {"class_name": "Ones", "config": {}}, "beta_regularizer": null, "gamma_regularizer": null, "beta_constraint": null, "gamma_constraint": null, "freeze": true}, "inbound_nodes": [[["res3b2_branch2b2", 0, 0, {}]]]}, {"name": "res3b2_branch2b_relu2", "class_name": "Activation", "config": {"name": "res3b2_branch2b_relu2", "trainable": true, "activation": "relu"}, "inbound_nodes": [[["bn3b2_branch2b2", 0, 0, {}]]]}, {"name": "res3b2_branch2c2", "class_name": "Conv2D", "config": {"name": "res3b2_branch2c2", "trainable": true, "filters": 512, "kernel_size": [1, 1], "strides": [1, 1], "padding": "valid", "data_format": "channels_last", "dilation_rate": [1, 1], "activation": "linear", "use_bias": false, "kernel_initializer": {"class_name": "VarianceScaling", "config": {"scale": 2.0, "mode": "fan_in", "distribution": "normal", "seed": null}}, "bias_initializer": {"class_name": "Zeros", "config": {}}, "kernel_regularizer": null, "bias_regularizer": null, "activity_regularizer": null, "kernel_constraint": null, "bias_constraint": null}, "inbound_nodes": [[["res3b2_branch2b_relu2", 0, 0, {}]]]}, {"name": "bn3b2_branch2c2", "class_name": "BatchNormalization", "config": {"name": "bn3b2_branch2c2", "trainable": false, "axis": 3, "momentum": 0.99, "epsilon": 1e-05, "center": true, "scale": true, "beta_initializer": {"class_name": "Zeros", "config": {}}, "gamma_initializer": {"class_name": "Ones", "config": {}}, "moving_mean_initializer": {"class_name": "Zeros", "config": {}}, "moving_variance_initializer": {"class_name": "Ones", "config": {}}, "beta_regularizer": null, "gamma_regularizer": null, "beta_constraint": null, "gamma_constraint": null, "freeze": true}, "inbound_nodes": [[["res3b2_branch2c2", 0, 0, {}]]]}, {"name": "res3b22", "class_name": "Add", "config": {"name": "res3b22", "trainable": true}, "inbound_nodes": [[["bn3b2_branch2c2", 0, 0, {}], ["res3b1_relu2", 0, 0, {}]]]}, {"name": "res3b2_relu2", "class_name": "Activation", "config": {"name": "res3b2_relu2", "trainable": true, "activation": "relu"}, "inbound_nodes": [[["res3b22", 0, 0, {}]]]}, {"name": "res3b3_branch2a2", "class_name": "Conv2D", "config": {"name": "res3b3_branch2a2", "trainable": true, "filters": 128, "kernel_size": [1, 1], "strides": [1, 1], "padding": "valid", "data_format": "channels_last", "dilation_rate": [1, 1], "activation": "linear", "use_bias": false, "kernel_initializer": {"class_name": "VarianceScaling", "config": {"scale": 2.0, "mode": "fan_in", "distribution": "normal", "seed": null}}, "bias_initializer": {"class_name": "Zeros", "config": {}}, "kernel_regularizer": null, "bias_regularizer": null, "activity_regularizer": null, "kernel_constraint": null, "bias_constraint": null}, "inbound_nodes": [[["res3b2_relu2", 0, 0, {}]]]}, {"name": "bn3b3_branch2a2", "class_name": "BatchNormalization", "config": {"name": "bn3b3_branch2a2", "trainable": false, "axis": 3, "momentum": 0.99, "epsilon": 1e-05, "center": true, "scale": true, "beta_initializer": {"class_name": "Zeros", "config": {}}, "gamma_initializer": {"class_name": "Ones", "config": {}}, "moving_mean_initializer": {"class_name": "Zeros", "config": {}}, "moving_variance_initializer": {"class_name": "Ones", "config": {}}, "beta_regularizer": null, "gamma_regularizer": null, "beta_constraint": null, "gamma_constraint": null, "freeze": true}, "inbound_nodes": [[["res3b3_branch2a2", 0, 0, {}]]]}, {"name": "res3b3_branch2a_relu2", "class_name": "Activation", "config": {"name": "res3b3_branch2a_relu2", "trainable": true, "activation": "relu"}, "inbound_nodes": [[["bn3b3_branch2a2", 0, 0, {}]]]}, {"name": "padding3b3_branch2b2", "class_name": "ZeroPadding2D", "config": {"name": "padding3b3_branch2b2", "trainable": true, "padding": [[1, 1], [1, 1]], "data_format": "channels_last"}, "inbound_nodes": [[["res3b3_branch2a_relu2", 0, 0, {}]]]}, {"name": "res3b3_branch2b2", "class_name": "Conv2D", "config": {"name": "res3b3_branch2b2", "trainable": true, "filters": 128, "kernel_size": [3, 3], "strides": [1, 1], "padding": "valid", "data_format": "channels_last", "dilation_rate": [1, 1], "activation": "linear", "use_bias": false, "kernel_initializer": {"class_name": "VarianceScaling", "config": {"scale": 2.0, "mode": "fan_in", "distribution": "normal", "seed": null}}, "bias_initializer": {"class_name": "Zeros", "config": {}}, "kernel_regularizer": null, "bias_regularizer": null, "activity_regularizer": null, "kernel_constraint": null, "bias_constraint": null}, "inbound_nodes": [[["padding3b3_branch2b2", 0, 0, {}]]]}, {"name": "bn3b3_branch2b2", "class_name": "BatchNormalization", "config": {"name": "bn3b3_branch2b2", "trainable": false, "axis": 3, "momentum": 0.99, "epsilon": 1e-05, "center": true, "scale": true, "beta_initializer": {"class_name": "Zeros", "config": {}}, "gamma_initializer": {"class_name": "Ones", "config": {}}, "moving_mean_initializer": {"class_name": "Zeros", "config": {}}, "moving_variance_initializer": {"class_name": "Ones", "config": {}}, "beta_regularizer": null, "gamma_regularizer": null, "beta_constraint": null, "gamma_constraint": null, "freeze": true}, "inbound_nodes": [[["res3b3_branch2b2", 0, 0, {}]]]}, {"name": "res3b3_branch2b_relu2", "class_name": "Activation", "config": {"name": "res3b3_branch2b_relu2", "trainable": true, "activation": "relu"}, "inbound_nodes": [[["bn3b3_branch2b2", 0, 0, {}]]]}, {"name": "res3b3_branch2c2", "class_name": "Conv2D", "config": {"name": "res3b3_branch2c2", "trainable": true, "filters": 512, "kernel_size": [1, 1], "strides": [1, 1], "padding": "valid", "data_format": "channels_last", "dilation_rate": [1, 1], "activation": "linear", "use_bias": false, "kernel_initializer": {"class_name": "VarianceScaling", "config": {"scale": 2.0, "mode": "fan_in", "distribution": "normal", "seed": null}}, "bias_initializer": {"class_name": "Zeros", "config": {}}, "kernel_regularizer": null, "bias_regularizer": null, "activity_regularizer": null, "kernel_constraint": null, "bias_constraint": null}, "inbound_nodes": [[["res3b3_branch2b_relu2", 0, 0, {}]]]}, {"name": "bn3b3_branch2c2", "class_name": "BatchNormalization", "config": {"name": "bn3b3_branch2c2", "trainable": false, "axis": 3, "momentum": 0.99, "epsilon": 1e-05, "center": true, "scale": true, "beta_initializer": {"class_name": "Zeros", "config": {}}, "gamma_initializer": {"class_name": "Ones", "config": {}}, "moving_mean_initializer": {"class_name": "Zeros", "config": {}}, "moving_variance_initializer": {"class_name": "Ones", "config": {}}, "beta_regularizer": null, "gamma_regularizer": null, "beta_constraint": null, "gamma_constraint": null, "freeze": true}, "inbound_nodes": [[["res3b3_branch2c2", 0, 0, {}]]]}, {"name": "res3b32", "class_name": "Add", "config": {"name": "res3b32", "trainable": true}, "inbound_nodes": [[["bn3b3_branch2c2", 0, 0, {}], ["res3b2_relu2", 0, 0, {}]]]}, {"name": "res3b3_relu2", "class_name": "Activation", "config": {"name": "res3b3_relu2", "trainable": true, "activation": "relu"}, "inbound_nodes": [[["res3b32", 0, 0, {}]]]}, {"name": "res3b4_branch2a2", "class_name": "Conv2D", "config": {"name": "res3b4_branch2a2", "trainable": true, "filters": 128, "kernel_size": [1, 1], "strides": [1, 1], "padding": "valid", "data_format": "channels_last", "dilation_rate": [1, 1], "activation": "linear", "use_bias": false, "kernel_initializer": {"class_name": "VarianceScaling", "config": {"scale": 2.0, "mode": "fan_in", "distribution": "normal", "seed": null}}, "bias_initializer": {"class_name": "Zeros", "config": {}}, "kernel_regularizer": null, "bias_regularizer": null, "activity_regularizer": null, "kernel_constraint": null, "bias_constraint": null}, "inbound_nodes": [[["res3b3_relu2", 0, 0, {}]]]}, {"name": "bn3b4_branch2a2", "class_name": "BatchNormalization", "config": {"name": "bn3b4_branch2a2", "trainable": false, "axis": 3, "momentum": 0.99, "epsilon": 1e-05, "center": true, "scale": true, "beta_initializer": {"class_name": "Zeros", "config": {}}, "gamma_initializer": {"class_name": "Ones", "config": {}}, "moving_mean_initializer": {"class_name": "Zeros", "config": {}}, "moving_variance_initializer": {"class_name": "Ones", "config": {}}, "beta_regularizer": null, "gamma_regularizer": null, "beta_constraint": null, "gamma_constraint": null, "freeze": true}, "inbound_nodes": [[["res3b4_branch2a2", 0, 0, {}]]]}, {"name": "res3b4_branch2a_relu2", "class_name": "Activation", "config": {"name": "res3b4_branch2a_relu2", "trainable": true, "activation": "relu"}, "inbound_nodes": [[["bn3b4_branch2a2", 0, 0, {}]]]}, {"name": "padding3b4_branch2b2", "class_name": "ZeroPadding2D", "config": {"name": "padding3b4_branch2b2", "trainable": true, "padding": [[1, 1], [1, 1]], "data_format": "channels_last"}, "inbound_nodes": [[["res3b4_branch2a_relu2", 0, 0, {}]]]}, {"name": "res3b4_branch2b2", "class_name": "Conv2D", "config": {"name": "res3b4_branch2b2", "trainable": true, "filters": 128, "kernel_size": [3, 3], "strides": [1, 1], "padding": "valid", "data_format": "channels_last", "dilation_rate": [1, 1], "activation": "linear", "use_bias": false, "kernel_initializer": {"class_name": "VarianceScaling", "config": {"scale": 2.0, "mode": "fan_in", "distribution": "normal", "seed": null}}, "bias_initializer": {"class_name": "Zeros", "config": {}}, "kernel_regularizer": null, "bias_regularizer": null, "activity_regularizer": null, "kernel_constraint": null, "bias_constraint": null}, "inbound_nodes": [[["padding3b4_branch2b2", 0, 0, {}]]]}, {"name": "bn3b4_branch2b2", "class_name": "BatchNormalization", "config": {"name": "bn3b4_branch2b2", "trainable": false, "axis": 3, "momentum": 0.99, "epsilon": 1e-05, "center": true, "scale": true, "beta_initializer": {"class_name": "Zeros", "config": {}}, "gamma_initializer": {"class_name": "Ones", "config": {}}, "moving_mean_initializer": {"class_name": "Zeros", "config": {}}, "moving_variance_initializer": {"class_name": "Ones", "config": {}}, "beta_regularizer": null, "gamma_regularizer": null, "beta_constraint": null, "gamma_constraint": null, "freeze": true}, "inbound_nodes": [[["res3b4_branch2b2", 0, 0, {}]]]}, {"name": "res3b4_branch2b_relu2", "class_name": "Activation", "config": {"name": "res3b4_branch2b_relu2", "trainable": true, "activation": "relu"}, "inbound_nodes": [[["bn3b4_branch2b2", 0, 0, {}]]]}, {"name": "res3b4_branch2c2", "class_name": "Conv2D", "config": {"name": "res3b4_branch2c2", "trainable": true, "filters": 512, "kernel_size": [1, 1], "strides": [1, 1], "padding": "valid", "data_format": "channels_last", "dilation_rate": [1, 1], "activation": "linear", "use_bias": false, "kernel_initializer": {"class_name": "VarianceScaling", "config": {"scale": 2.0, "mode": "fan_in", "distribution": "normal", "seed": null}}, "bias_initializer": {"class_name": "Zeros", "config": {}}, "kernel_regularizer": null, "bias_regularizer": null, "activity_regularizer": null, "kernel_constraint": null, "bias_constraint": null}, "inbound_nodes": [[["res3b4_branch2b_relu2", 0, 0, {}]]]}, {"name": "bn3b4_branch2c2", "class_name": "BatchNormalization", "config": {"name": "bn3b4_branch2c2", "trainable": false, "axis": 3, "momentum": 0.99, "epsilon": 1e-05, "center": true, "scale": true, "beta_initializer": {"class_name": "Zeros", "config": {}}, "gamma_initializer": {"class_name": "Ones", "config": {}}, "moving_mean_initializer": {"class_name": "Zeros", "config": {}}, "moving_variance_initializer": {"class_name": "Ones", "config": {}}, "beta_regularizer": null, "gamma_regularizer": null, "beta_constraint": null, "gamma_constraint": null, "freeze": true}, "inbound_nodes": [[["res3b4_branch2c2", 0, 0, {}]]]}, {"name": "res3b42", "class_name": "Add", "config": {"name": "res3b42", "trainable": true}, "inbound_nodes": [[["bn3b4_branch2c2", 0, 0, {}], ["res3b3_relu2", 0, 0, {}]]]}, {"name": "res3b4_relu2", "class_name": "Activation", "config": {"name": "res3b4_relu2", "trainable": true, "activation": "relu"}, "inbound_nodes": [[["res3b42", 0, 0, {}]]]}, {"name": "res3b5_branch2a2", "class_name": "Conv2D", "config": {"name": "res3b5_branch2a2", "trainable": true, "filters": 128, "kernel_size": [1, 1], "strides": [1, 1], "padding": "valid", "data_format": "channels_last", "dilation_rate": [1, 1], "activation": "linear", "use_bias": false, "kernel_initializer": {"class_name": "VarianceScaling", "config": {"scale": 2.0, "mode": "fan_in", "distribution": "normal", "seed": null}}, "bias_initializer": {"class_name": "Zeros", "config": {}}, "kernel_regularizer": null, "bias_regularizer": null, "activity_regularizer": null, "kernel_constraint": null, "bias_constraint": null}, "inbound_nodes": [[["res3b4_relu2", 0, 0, {}]]]}, {"name": "bn3b5_branch2a2", "class_name": "BatchNormalization", "config": {"name": "bn3b5_branch2a2", "trainable": false, "axis": 3, "momentum": 0.99, "epsilon": 1e-05, "center": true, "scale": true, "beta_initializer": {"class_name": "Zeros", "config": {}}, "gamma_initializer": {"class_name": "Ones", "config": {}}, "moving_mean_initializer": {"class_name": "Zeros", "config": {}}, "moving_variance_initializer": {"class_name": "Ones", "config": {}}, "beta_regularizer": null, "gamma_regularizer": null, "beta_constraint": null, "gamma_constraint": null, "freeze": true}, "inbound_nodes": [[["res3b5_branch2a2", 0, 0, {}]]]}, {"name": "res3b5_branch2a_relu2", "class_name": "Activation", "config": {"name": "res3b5_branch2a_relu2", "trainable": true, "activation": "relu"}, "inbound_nodes": [[["bn3b5_branch2a2", 0, 0, {}]]]}, {"name": "padding3b5_branch2b2", "class_name": "ZeroPadding2D", "config": {"name": "padding3b5_branch2b2", "trainable": true, "padding": [[1, 1], [1, 1]], "data_format": "channels_last"}, "inbound_nodes": [[["res3b5_branch2a_relu2", 0, 0, {}]]]}, {"name": "res3b5_branch2b2", "class_name": "Conv2D", "config": {"name": "res3b5_branch2b2", "trainable": true, "filters": 128, "kernel_size": [3, 3], "strides": [1, 1], "padding": "valid", "data_format": "channels_last", "dilation_rate": [1, 1], "activation": "linear", "use_bias": false, "kernel_initializer": {"class_name": "VarianceScaling", "config": {"scale": 2.0, "mode": "fan_in", "distribution": "normal", "seed": null}}, "bias_initializer": {"class_name": "Zeros", "config": {}}, "kernel_regularizer": null, "bias_regularizer": null, "activity_regularizer": null, "kernel_constraint": null, "bias_constraint": null}, "inbound_nodes": [[["padding3b5_branch2b2", 0, 0, {}]]]}, {"name": "bn3b5_branch2b2", "class_name": "BatchNormalization", "config": {"name": "bn3b5_branch2b2", "trainable": false, "axis": 3, "momentum": 0.99, "epsilon": 1e-05, "center": true, "scale": true, "beta_initializer": {"class_name": "Zeros", "config": {}}, "gamma_initializer": {"class_name": "Ones", "config": {}}, "moving_mean_initializer": {"class_name": "Zeros", "config": {}}, "moving_variance_initializer": {"class_name": "Ones", "config": {}}, "beta_regularizer": null, "gamma_regularizer": null, "beta_constraint": null, "gamma_constraint": null, "freeze": true}, "inbound_nodes": [[["res3b5_branch2b2", 0, 0, {}]]]}, {"name": "res3b5_branch2b_relu2", "class_name": "Activation", "config": {"name": "res3b5_branch2b_relu2", "trainable": true, "activation": "relu"}, "inbound_nodes": [[["bn3b5_branch2b2", 0, 0, {}]]]}, {"name": "res3b5_branch2c2", "class_name": "Conv2D", "config": {"name": "res3b5_branch2c2", "trainable": true, "filters": 512, "kernel_size": [1, 1], "strides": [1, 1], "padding": "valid", "data_format": "channels_last", "dilation_rate": [1, 1], "activation": "linear", "use_bias": false, "kernel_initializer": {"class_name": "VarianceScaling", "config": {"scale": 2.0, "mode": "fan_in", "distribution": "normal", "seed": null}}, "bias_initializer": {"class_name": "Zeros", "config": {}}, "kernel_regularizer": null, "bias_regularizer": null, "activity_regularizer": null, "kernel_constraint": null, "bias_constraint": null}, "inbound_nodes": [[["res3b5_branch2b_relu2", 0, 0, {}]]]}, {"name": "bn3b5_branch2c2", "class_name": "BatchNormalization", "config": {"name": "bn3b5_branch2c2", "trainable": false, "axis": 3, "momentum": 0.99, "epsilon": 1e-05, "center": true, "scale": true, "beta_initializer": {"class_name": "Zeros", "config": {}}, "gamma_initializer": {"class_name": "Ones", "config": {}}, "moving_mean_initializer": {"class_name": "Zeros", "config": {}}, "moving_variance_initializer": {"class_name": "Ones", "config": {}}, "beta_regularizer": null, "gamma_regularizer": null, "beta_constraint": null, "gamma_constraint": null, "freeze": true}, "inbound_nodes": [[["res3b5_branch2c2", 0, 0, {}]]]}, {"name": "res3b52", "class_name": "Add", "config": {"name": "res3b52", "trainable": true}, "inbound_nodes": [[["bn3b5_branch2c2", 0, 0, {}], ["res3b4_relu2", 0, 0, {}]]]}, {"name": "res3b5_relu2", "class_name": "Activation", "config": {"name": "res3b5_relu2", "trainable": true, "activation": "relu"}, "inbound_nodes": [[["res3b52", 0, 0, {}]]]}, {"name": "res3b6_branch2a2", "class_name": "Conv2D", "config": {"name": "res3b6_branch2a2", "trainable": true, "filters": 128, "kernel_size": [1, 1], "strides": [1, 1], "padding": "valid", "data_format": "channels_last", "dilation_rate": [1, 1], "activation": "linear", "use_bias": false, "kernel_initializer": {"class_name": "VarianceScaling", "config": {"scale": 2.0, "mode": "fan_in", "distribution": "normal", "seed": null}}, "bias_initializer": {"class_name": "Zeros", "config": {}}, "kernel_regularizer": null, "bias_regularizer": null, "activity_regularizer": null, "kernel_constraint": null, "bias_constraint": null}, "inbound_nodes": [[["res3b5_relu2", 0, 0, {}]]]}, {"name": "bn3b6_branch2a2", "class_name": "BatchNormalization", "config": {"name": "bn3b6_branch2a2", "trainable": false, "axis": 3, "momentum": 0.99, "epsilon": 1e-05, "center": true, "scale": true, "beta_initializer": {"class_name": "Zeros", "config": {}}, "gamma_initializer": {"class_name": "Ones", "config": {}}, "moving_mean_initializer": {"class_name": "Zeros", "config": {}}, "moving_variance_initializer": {"class_name": "Ones", "config": {}}, "beta_regularizer": null, "gamma_regularizer": null, "beta_constraint": null, "gamma_constraint": null, "freeze": true}, "inbound_nodes": [[["res3b6_branch2a2", 0, 0, {}]]]}, {"name": "res3b6_branch2a_relu2", "class_name": "Activation", "config": {"name": "res3b6_branch2a_relu2", "trainable": true, "activation": "relu"}, "inbound_nodes": [[["bn3b6_branch2a2", 0, 0, {}]]]}, {"name": "padding3b6_branch2b2", "class_name": "ZeroPadding2D", "config": {"name": "padding3b6_branch2b2", "trainable": true, "padding": [[1, 1], [1, 1]], "data_format": "channels_last"}, "inbound_nodes": [[["res3b6_branch2a_relu2", 0, 0, {}]]]}, {"name": "res3b6_branch2b2", "class_name": "Conv2D", "config": {"name": "res3b6_branch2b2", "trainable": true, "filters": 128, "kernel_size": [3, 3], "strides": [1, 1], "padding": "valid", "data_format": "channels_last", "dilation_rate": [1, 1], "activation": "linear", "use_bias": false, "kernel_initializer": {"class_name": "VarianceScaling", "config": {"scale": 2.0, "mode": "fan_in", "distribution": "normal", "seed": null}}, "bias_initializer": {"class_name": "Zeros", "config": {}}, "kernel_regularizer": null, "bias_regularizer": null, "activity_regularizer": null, "kernel_constraint": null, "bias_constraint": null}, "inbound_nodes": [[["padding3b6_branch2b2", 0, 0, {}]]]}, {"name": "bn3b6_branch2b2", "class_name": "BatchNormalization", "config": {"name": "bn3b6_branch2b2", "trainable": false, "axis": 3, "momentum": 0.99, "epsilon": 1e-05, "center": true, "scale": true, "beta_initializer": {"class_name": "Zeros", "config": {}}, "gamma_initializer": {"class_name": "Ones", "config": {}}, "moving_mean_initializer": {"class_name": "Zeros", "config": {}}, "moving_variance_initializer": {"class_name": "Ones", "config": {}}, "beta_regularizer": null, "gamma_regularizer": null, "beta_constraint": null, "gamma_constraint": null, "freeze": true}, "inbound_nodes": [[["res3b6_branch2b2", 0, 0, {}]]]}, {"name": "res3b6_branch2b_relu2", "class_name": "Activation", "config": {"name": "res3b6_branch2b_relu2", "trainable": true, "activation": "relu"}, "inbound_nodes": [[["bn3b6_branch2b2", 0, 0, {}]]]}, {"name": "res3b6_branch2c2", "class_name": "Conv2D", "config": {"name": "res3b6_branch2c2", "trainable": true, "filters": 512, "kernel_size": [1, 1], "strides": [1, 1], "padding": "valid", "data_format": "channels_last", "dilation_rate": [1, 1], "activation": "linear", "use_bias": false, "kernel_initializer": {"class_name": "VarianceScaling", "config": {"scale": 2.0, "mode": "fan_in", "distribution": "normal", "seed": null}}, "bias_initializer": {"class_name": "Zeros", "config": {}}, "kernel_regularizer": null, "bias_regularizer": null, "activity_regularizer": null, "kernel_constraint": null, "bias_constraint": null}, "inbound_nodes": [[["res3b6_branch2b_relu2", 0, 0, {}]]]}, {"name": "bn3b6_branch2c2", "class_name": "BatchNormalization", "config": {"name": "bn3b6_branch2c2", "trainable": false, "axis": 3, "momentum": 0.99, "epsilon": 1e-05, "center": true, "scale": true, "beta_initializer": {"class_name": "Zeros", "config": {}}, "gamma_initializer": {"class_name": "Ones", "config": {}}, "moving_mean_initializer": {"class_name": "Zeros", "config": {}}, "moving_variance_initializer": {"class_name": "Ones", "config": {}}, "beta_regularizer": null, "gamma_regularizer": null, "beta_constraint": null, "gamma_constraint": null, "freeze": true}, "inbound_nodes": [[["res3b6_branch2c2", 0, 0, {}]]]}, {"name": "res3b62", "class_name": "Add", "config": {"name": "res3b62", "trainable": true}, "inbound_nodes": [[["bn3b6_branch2c2", 0, 0, {}], ["res3b5_relu2", 0, 0, {}]]]}, {"name": "res3b6_relu2", "class_name": "Activation", "config": {"name": "res3b6_relu2", "trainable": true, "activation": "relu"}, "inbound_nodes": [[["res3b62", 0, 0, {}]]]}, {"name": "res3b7_branch2a2", "class_name": "Conv2D", "config": {"name": "res3b7_branch2a2", "trainable": true, "filters": 128, "kernel_size": [1, 1], "strides": [1, 1], "padding": "valid", "data_format": "channels_last", "dilation_rate": [1, 1], "activation": "linear", "use_bias": false, "kernel_initializer": {"class_name": "VarianceScaling", "config": {"scale": 2.0, "mode": "fan_in", "distribution": "normal", "seed": null}}, "bias_initializer": {"class_name": "Zeros", "config": {}}, "kernel_regularizer": null, "bias_regularizer": null, "activity_regularizer": null, "kernel_constraint": null, "bias_constraint": null}, "inbound_nodes": [[["res3b6_relu2", 0, 0, {}]]]}, {"name": "bn3b7_branch2a2", "class_name": "BatchNormalization", "config": {"name": "bn3b7_branch2a2", "trainable": false, "axis": 3, "momentum": 0.99, "epsilon": 1e-05, "center": true, "scale": true, "beta_initializer": {"class_name": "Zeros", "config": {}}, "gamma_initializer": {"class_name": "Ones", "config": {}}, "moving_mean_initializer": {"class_name": "Zeros", "config": {}}, "moving_variance_initializer": {"class_name": "Ones", "config": {}}, "beta_regularizer": null, "gamma_regularizer": null, "beta_constraint": null, "gamma_constraint": null, "freeze": true}, "inbound_nodes": [[["res3b7_branch2a2", 0, 0, {}]]]}, {"name": "res3b7_branch2a_relu2", "class_name": "Activation", "config": {"name": "res3b7_branch2a_relu2", "trainable": true, "activation": "relu"}, "inbound_nodes": [[["bn3b7_branch2a2", 0, 0, {}]]]}, {"name": "padding3b7_branch2b2", "class_name": "ZeroPadding2D", "config": {"name": "padding3b7_branch2b2", "trainable": true, "padding": [[1, 1], [1, 1]], "data_format": "channels_last"}, "inbound_nodes": [[["res3b7_branch2a_relu2", 0, 0, {}]]]}, {"name": "res3b7_branch2b2", "class_name": "Conv2D", "config": {"name": "res3b7_branch2b2", "trainable": true, "filters": 128, "kernel_size": [3, 3], "strides": [1, 1], "padding": "valid", "data_format": "channels_last", "dilation_rate": [1, 1], "activation": "linear", "use_bias": false, "kernel_initializer": {"class_name": "VarianceScaling", "config": {"scale": 2.0, "mode": "fan_in", "distribution": "normal", "seed": null}}, "bias_initializer": {"class_name": "Zeros", "config": {}}, "kernel_regularizer": null, "bias_regularizer": null, "activity_regularizer": null, "kernel_constraint": null, "bias_constraint": null}, "inbound_nodes": [[["padding3b7_branch2b2", 0, 0, {}]]]}, {"name": "bn3b7_branch2b2", "class_name": "BatchNormalization", "config": {"name": "bn3b7_branch2b2", "trainable": false, "axis": 3, "momentum": 0.99, "epsilon": 1e-05, "center": true, "scale": true, "beta_initializer": {"class_name": "Zeros", "config": {}}, "gamma_initializer": {"class_name": "Ones", "config": {}}, "moving_mean_initializer": {"class_name": "Zeros", "config": {}}, "moving_variance_initializer": {"class_name": "Ones", "config": {}}, "beta_regularizer": null, "gamma_regularizer": null, "beta_constraint": null, "gamma_constraint": null, "freeze": true}, "inbound_nodes": [[["res3b7_branch2b2", 0, 0, {}]]]}, {"name": "res3b7_branch2b_relu2", "class_name": "Activation", "config": {"name": "res3b7_branch2b_relu2", "trainable": true, "activation": "relu"}, "inbound_nodes": [[["bn3b7_branch2b2", 0, 0, {}]]]}, {"name": "res3b7_branch2c2", "class_name": "Conv2D", "config": {"name": "res3b7_branch2c2", "trainable": true, "filters": 512, "kernel_size": [1, 1], "strides": [1, 1], "padding": "valid", "data_format": "channels_last", "dilation_rate": [1, 1], "activation": "linear", "use_bias": false, "kernel_initializer": {"class_name": "VarianceScaling", "config": {"scale": 2.0, "mode": "fan_in", "distribution": "normal", "seed": null}}, "bias_initializer": {"class_name": "Zeros", "config": {}}, "kernel_regularizer": null, "bias_regularizer": null, "activity_regularizer": null, "kernel_constraint": null, "bias_constraint": null}, "inbound_nodes": [[["res3b7_branch2b_relu2", 0, 0, {}]]]}, {"name": "bn3b7_branch2c2", "class_name": "BatchNormalization", "config": {"name": "bn3b7_branch2c2", "trainable": false, "axis": 3, "momentum": 0.99, "epsilon": 1e-05, "center": true, "scale": true, "beta_initializer": {"class_name": "Zeros", "config": {}}, "gamma_initializer": {"class_name": "Ones", "config": {}}, "moving_mean_initializer": {"class_name": "Zeros", "config": {}}, "moving_variance_initializer": {"class_name": "Ones", "config": {}}, "beta_regularizer": null, "gamma_regularizer": null, "beta_constraint": null, "gamma_constraint": null, "freeze": true}, "inbound_nodes": [[["res3b7_branch2c2", 0, 0, {}]]]}, {"name": "res3b72", "class_name": "Add", "config": {"name": "res3b72", "trainable": true}, "inbound_nodes": [[["bn3b7_branch2c2", 0, 0, {}], ["res3b6_relu2", 0, 0, {}]]]}, {"name": "res3b7_relu2", "class_name": "Activation", "config": {"name": "res3b7_relu2", "trainable": true, "activation": "relu"}, "inbound_nodes": [[["res3b72", 0, 0, {}]]]}, {"name": "res4a_branch2a2", "class_name": "Conv2D", "config": {"name": "res4a_branch2a2", "trainable": true, "filters": 256, "kernel_size": [1, 1], "strides": [2, 2], "padding": "valid", "data_format": "channels_last", "dilation_rate": [1, 1], "activation": "linear", "use_bias": false, "kernel_initializer": {"class_name": "VarianceScaling", "config": {"scale": 2.0, "mode": "fan_in", "distribution": "normal", "seed": null}}, "bias_initializer": {"class_name": "Zeros", "config": {}}, "kernel_regularizer": null, "bias_regularizer": null, "activity_regularizer": null, "kernel_constraint": null, "bias_constraint": null}, "inbound_nodes": [[["res3b7_relu2", 0, 0, {}]]]}, {"name": "bn4a_branch2a2", "class_name": "BatchNormalization", "config": {"name": "bn4a_branch2a2", "trainable": false, "axis": 3, "momentum": 0.99, "epsilon": 1e-05, "center": true, "scale": true, "beta_initializer": {"class_name": "Zeros", "config": {}}, "gamma_initializer": {"class_name": "Ones", "config": {}}, "moving_mean_initializer": {"class_name": "Zeros", "config": {}}, "moving_variance_initializer": {"class_name": "Ones", "config": {}}, "beta_regularizer": null, "gamma_regularizer": null, "beta_constraint": null, "gamma_constraint": null, "freeze": true}, "inbound_nodes": [[["res4a_branch2a2", 0, 0, {}]]]}, {"name": "res4a_branch2a_relu2", "class_name": "Activation", "config": {"name": "res4a_branch2a_relu2", "trainable": true, "activation": "relu"}, "inbound_nodes": [[["bn4a_branch2a2", 0, 0, {}]]]}, {"name": "padding4a_branch2b2", "class_name": "ZeroPadding2D", "config": {"name": "padding4a_branch2b2", "trainable": true, "padding": [[1, 1], [1, 1]], "data_format": "channels_last"}, "inbound_nodes": [[["res4a_branch2a_relu2", 0, 0, {}]]]}, {"name": "res4a_branch2b2", "class_name": "Conv2D", "config": {"name": "res4a_branch2b2", "trainable": true, "filters": 256, "kernel_size": [3, 3], "strides": [1, 1], "padding": "valid", "data_format": "channels_last", "dilation_rate": [1, 1], "activation": "linear", "use_bias": false, "kernel_initializer": {"class_name": "VarianceScaling", "config": {"scale": 2.0, "mode": "fan_in", "distribution": "normal", "seed": null}}, "bias_initializer": {"class_name": "Zeros", "config": {}}, "kernel_regularizer": null, "bias_regularizer": null, "activity_regularizer": null, "kernel_constraint": null, "bias_constraint": null}, "inbound_nodes": [[["padding4a_branch2b2", 0, 0, {}]]]}, {"name": "bn4a_branch2b2", "class_name": "BatchNormalization", "config": {"name": "bn4a_branch2b2", "trainable": false, "axis": 3, "momentum": 0.99, "epsilon": 1e-05, "center": true, "scale": true, "beta_initializer": {"class_name": "Zeros", "config": {}}, "gamma_initializer": {"class_name": "Ones", "config": {}}, "moving_mean_initializer": {"class_name": "Zeros", "config": {}}, "moving_variance_initializer": {"class_name": "Ones", "config": {}}, "beta_regularizer": null, "gamma_regularizer": null, "beta_constraint": null, "gamma_constraint": null, "freeze": true}, "inbound_nodes": [[["res4a_branch2b2", 0, 0, {}]]]}, {"name": "res4a_branch2b_relu2", "class_name": "Activation", "config": {"name": "res4a_branch2b_relu2", "trainable": true, "activation": "relu"}, "inbound_nodes": [[["bn4a_branch2b2", 0, 0, {}]]]}, {"name": "res4a_branch2c2", "class_name": "Conv2D", "config": {"name": "res4a_branch2c2", "trainable": true, "filters": 1024, "kernel_size": [1, 1], "strides": [1, 1], "padding": "valid", "data_format": "channels_last", "dilation_rate": [1, 1], "activation": "linear", "use_bias": false, "kernel_initializer": {"class_name": "VarianceScaling", "config": {"scale": 2.0, "mode": "fan_in", "distribution": "normal", "seed": null}}, "bias_initializer": {"class_name": "Zeros", "config": {}}, "kernel_regularizer": null, "bias_regularizer": null, "activity_regularizer": null, "kernel_constraint": null, "bias_constraint": null}, "inbound_nodes": [[["res4a_branch2b_relu2", 0, 0, {}]]]}, {"name": "res4a_branch12", "class_name": "Conv2D", "config": {"name": "res4a_branch12", "trainable": true, "filters": 1024, "kernel_size": [1, 1], "strides": [2, 2], "padding": "valid", "data_format": "channels_last", "dilation_rate": [1, 1], "activation": "linear", "use_bias": false, "kernel_initializer": {"class_name": "VarianceScaling", "config": {"scale": 2.0, "mode": "fan_in", "distribution": "normal", "seed": null}}, "bias_initializer": {"class_name": "Zeros", "config": {}}, "kernel_regularizer": null, "bias_regularizer": null, "activity_regularizer": null, "kernel_constraint": null, "bias_constraint": null}, "inbound_nodes": [[["res3b7_relu2", 0, 0, {}]]]}, {"name": "bn4a_branch2c2", "class_name": "BatchNormalization", "config": {"name": "bn4a_branch2c2", "trainable": false, "axis": 3, "momentum": 0.99, "epsilon": 1e-05, "center": true, "scale": true, "beta_initializer": {"class_name": "Zeros", "config": {}}, "gamma_initializer": {"class_name": "Ones", "config": {}}, "moving_mean_initializer": {"class_name": "Zeros", "config": {}}, "moving_variance_initializer": {"class_name": "Ones", "config": {}}, "beta_regularizer": null, "gamma_regularizer": null, "beta_constraint": null, "gamma_constraint": null, "freeze": true}, "inbound_nodes": [[["res4a_branch2c2", 0, 0, {}]]]}, {"name": "bn4a_branch12", "class_name": "BatchNormalization", "config": {"name": "bn4a_branch12", "trainable": false, "axis": 3, "momentum": 0.99, "epsilon": 1e-05, "center": true, "scale": true, "beta_initializer": {"class_name": "Zeros", "config": {}}, "gamma_initializer": {"class_name": "Ones", "config": {}}, "moving_mean_initializer": {"class_name": "Zeros", "config": {}}, "moving_variance_initializer": {"class_name": "Ones", "config": {}}, "beta_regularizer": null, "gamma_regularizer": null, "beta_constraint": null, "gamma_constraint": null, "freeze": true}, "inbound_nodes": [[["res4a_branch12", 0, 0, {}]]]}, {"name": "res4a2", "class_name": "Add", "config": {"name": "res4a2", "trainable": true}, "inbound_nodes": [[["bn4a_branch2c2", 0, 0, {}], ["bn4a_branch12", 0, 0, {}]]]}, {"name": "res4a_relu2", "class_name": "Activation", "config": {"name": "res4a_relu2", "trainable": true, "activation": "relu"}, "inbound_nodes": [[["res4a2", 0, 0, {}]]]}, {"name": "res4b1_branch2a2", "class_name": "Conv2D", "config": {"name": "res4b1_branch2a2", "trainable": true, "filters": 256, "kernel_size": [1, 1], "strides": [1, 1], "padding": "valid", "data_format": "channels_last", "dilation_rate": [1, 1], "activation": "linear", "use_bias": false, "kernel_initializer": {"class_name": "VarianceScaling", "config": {"scale": 2.0, "mode": "fan_in", "distribution": "normal", "seed": null}}, "bias_initializer": {"class_name": "Zeros", "config": {}}, "kernel_regularizer": null, "bias_regularizer": null, "activity_regularizer": null, "kernel_constraint": null, "bias_constraint": null}, "inbound_nodes": [[["res4a_relu2", 0, 0, {}]]]}, {"name": "bn4b1_branch2a2", "class_name": "BatchNormalization", "config": {"name": "bn4b1_branch2a2", "trainable": false, "axis": 3, "momentum": 0.99, "epsilon": 1e-05, "center": true, "scale": true, "beta_initializer": {"class_name": "Zeros", "config": {}}, "gamma_initializer": {"class_name": "Ones", "config": {}}, "moving_mean_initializer": {"class_name": "Zeros", "config": {}}, "moving_variance_initializer": {"class_name": "Ones", "config": {}}, "beta_regularizer": null, "gamma_regularizer": null, "beta_constraint": null, "gamma_constraint": null, "freeze": true}, "inbound_nodes": [[["res4b1_branch2a2", 0, 0, {}]]]}, {"name": "res4b1_branch2a_relu2", "class_name": "Activation", "config": {"name": "res4b1_branch2a_relu2", "trainable": true, "activation": "relu"}, "inbound_nodes": [[["bn4b1_branch2a2", 0, 0, {}]]]}, {"name": "padding4b1_branch2b2", "class_name": "ZeroPadding2D", "config": {"name": "padding4b1_branch2b2", "trainable": true, "padding": [[1, 1], [1, 1]], "data_format": "channels_last"}, "inbound_nodes": [[["res4b1_branch2a_relu2", 0, 0, {}]]]}, {"name": "res4b1_branch2b2", "class_name": "Conv2D", "config": {"name": "res4b1_branch2b2", "trainable": true, "filters": 256, "kernel_size": [3, 3], "strides": [1, 1], "padding": "valid", "data_format": "channels_last", "dilation_rate": [1, 1], "activation": "linear", "use_bias": false, "kernel_initializer": {"class_name": "VarianceScaling", "config": {"scale": 2.0, "mode": "fan_in", "distribution": "normal", "seed": null}}, "bias_initializer": {"class_name": "Zeros", "config": {}}, "kernel_regularizer": null, "bias_regularizer": null, "activity_regularizer": null, "kernel_constraint": null, "bias_constraint": null}, "inbound_nodes": [[["padding4b1_branch2b2", 0, 0, {}]]]}, {"name": "bn4b1_branch2b2", "class_name": "BatchNormalization", "config": {"name": "bn4b1_branch2b2", "trainable": false, "axis": 3, "momentum": 0.99, "epsilon": 1e-05, "center": true, "scale": true, "beta_initializer": {"class_name": "Zeros", "config": {}}, "gamma_initializer": {"class_name": "Ones", "config": {}}, "moving_mean_initializer": {"class_name": "Zeros", "config": {}}, "moving_variance_initializer": {"class_name": "Ones", "config": {}}, "beta_regularizer": null, "gamma_regularizer": null, "beta_constraint": null, "gamma_constraint": null, "freeze": true}, "inbound_nodes": [[["res4b1_branch2b2", 0, 0, {}]]]}, {"name": "res4b1_branch2b_relu2", "class_name": "Activation", "config": {"name": "res4b1_branch2b_relu2", "trainable": true, "activation": "relu"}, "inbound_nodes": [[["bn4b1_branch2b2", 0, 0, {}]]]}, {"name": "res4b1_branch2c2", "class_name": "Conv2D", "config": {"name": "res4b1_branch2c2", "trainable": true, "filters": 1024, "kernel_size": [1, 1], "strides": [1, 1], "padding": "valid", "data_format": "channels_last", "dilation_rate": [1, 1], "activation": "linear", "use_bias": false, "kernel_initializer": {"class_name": "VarianceScaling", "config": {"scale": 2.0, "mode": "fan_in", "distribution": "normal", "seed": null}}, "bias_initializer": {"class_name": "Zeros", "config": {}}, "kernel_regularizer": null, "bias_regularizer": null, "activity_regularizer": null, "kernel_constraint": null, "bias_constraint": null}, "inbound_nodes": [[["res4b1_branch2b_relu2", 0, 0, {}]]]}, {"name": "bn4b1_branch2c2", "class_name": "BatchNormalization", "config": {"name": "bn4b1_branch2c2", "trainable": false, "axis": 3, "momentum": 0.99, "epsilon": 1e-05, "center": true, "scale": true, "beta_initializer": {"class_name": "Zeros", "config": {}}, "gamma_initializer": {"class_name": "Ones", "config": {}}, "moving_mean_initializer": {"class_name": "Zeros", "config": {}}, "moving_variance_initializer": {"class_name": "Ones", "config": {}}, "beta_regularizer": null, "gamma_regularizer": null, "beta_constraint": null, "gamma_constraint": null, "freeze": true}, "inbound_nodes": [[["res4b1_branch2c2", 0, 0, {}]]]}, {"name": "res4b122", "class_name": "Add", "config": {"name": "res4b122", "trainable": true}, "inbound_nodes": [[["bn4b1_branch2c2", 0, 0, {}], ["res4a_relu2", 0, 0, {}]]]}, {"name": "res4b1_relu2", "class_name": "Activation", "config": {"name": "res4b1_relu2", "trainable": true, "activation": "relu"}, "inbound_nodes": [[["res4b122", 0, 0, {}]]]}, {"name": "res4b2_branch2a2", "class_name": "Conv2D", "config": {"name": "res4b2_branch2a2", "trainable": true, "filters": 256, "kernel_size": [1, 1], "strides": [1, 1], "padding": "valid", "data_format": "channels_last", "dilation_rate": [1, 1], "activation": "linear", "use_bias": false, "kernel_initializer": {"class_name": "VarianceScaling", "config": {"scale": 2.0, "mode": "fan_in", "distribution": "normal", "seed": null}}, "bias_initializer": {"class_name": "Zeros", "config": {}}, "kernel_regularizer": null, "bias_regularizer": null, "activity_regularizer": null, "kernel_constraint": null, "bias_constraint": null}, "inbound_nodes": [[["res4b1_relu2", 0, 0, {}]]]}, {"name": "bn4b2_branch2a2", "class_name": "BatchNormalization", "config": {"name": "bn4b2_branch2a2", "trainable": false, "axis": 3, "momentum": 0.99, "epsilon": 1e-05, "center": true, "scale": true, "beta_initializer": {"class_name": "Zeros", "config": {}}, "gamma_initializer": {"class_name": "Ones", "config": {}}, "moving_mean_initializer": {"class_name": "Zeros", "config": {}}, "moving_variance_initializer": {"class_name": "Ones", "config": {}}, "beta_regularizer": null, "gamma_regularizer": null, "beta_constraint": null, "gamma_constraint": null, "freeze": true}, "inbound_nodes": [[["res4b2_branch2a2", 0, 0, {}]]]}, {"name": "res4b2_branch2a_relu2", "class_name": "Activation", "config": {"name": "res4b2_branch2a_relu2", "trainable": true, "activation": "relu"}, "inbound_nodes": [[["bn4b2_branch2a2", 0, 0, {}]]]}, {"name": "padding4b2_branch2b2", "class_name": "ZeroPadding2D", "config": {"name": "padding4b2_branch2b2", "trainable": true, "padding": [[1, 1], [1, 1]], "data_format": "channels_last"}, "inbound_nodes": [[["res4b2_branch2a_relu2", 0, 0, {}]]]}, {"name": "res4b2_branch2b2", "class_name": "Conv2D", "config": {"name": "res4b2_branch2b2", "trainable": true, "filters": 256, "kernel_size": [3, 3], "strides": [1, 1], "padding": "valid", "data_format": "channels_last", "dilation_rate": [1, 1], "activation": "linear", "use_bias": false, "kernel_initializer": {"class_name": "VarianceScaling", "config": {"scale": 2.0, "mode": "fan_in", "distribution": "normal", "seed": null}}, "bias_initializer": {"class_name": "Zeros", "config": {}}, "kernel_regularizer": null, "bias_regularizer": null, "activity_regularizer": null, "kernel_constraint": null, "bias_constraint": null}, "inbound_nodes": [[["padding4b2_branch2b2", 0, 0, {}]]]}, {"name": "bn4b2_branch2b2", "class_name": "BatchNormalization", "config": {"name": "bn4b2_branch2b2", "trainable": false, "axis": 3, "momentum": 0.99, "epsilon": 1e-05, "center": true, "scale": true, "beta_initializer": {"class_name": "Zeros", "config": {}}, "gamma_initializer": {"class_name": "Ones", "config": {}}, "moving_mean_initializer": {"class_name": "Zeros", "config": {}}, "moving_variance_initializer": {"class_name": "Ones", "config": {}}, "beta_regularizer": null, "gamma_regularizer": null, "beta_constraint": null, "gamma_constraint": null, "freeze": true}, "inbound_nodes": [[["res4b2_branch2b2", 0, 0, {}]]]}, {"name": "res4b2_branch2b_relu2", "class_name": "Activation", "config": {"name": "res4b2_branch2b_relu2", "trainable": true, "activation": "relu"}, "inbound_nodes": [[["bn4b2_branch2b2", 0, 0, {}]]]}, {"name": "res4b2_branch2c2", "class_name": "Conv2D", "config": {"name": "res4b2_branch2c2", "trainable": true, "filters": 1024, "kernel_size": [1, 1], "strides": [1, 1], "padding": "valid", "data_format": "channels_last", "dilation_rate": [1, 1], "activation": "linear", "use_bias": false, "kernel_initializer": {"class_name": "VarianceScaling", "config": {"scale": 2.0, "mode": "fan_in", "distribution": "normal", "seed": null}}, "bias_initializer": {"class_name": "Zeros", "config": {}}, "kernel_regularizer": null, "bias_regularizer": null, "activity_regularizer": null, "kernel_constraint": null, "bias_constraint": null}, "inbound_nodes": [[["res4b2_branch2b_relu2", 0, 0, {}]]]}, {"name": "bn4b2_branch2c2", "class_name": "BatchNormalization", "config": {"name": "bn4b2_branch2c2", "trainable": false, "axis": 3, "momentum": 0.99, "epsilon": 1e-05, "center": true, "scale": true, "beta_initializer": {"class_name": "Zeros", "config": {}}, "gamma_initializer": {"class_name": "Ones", "config": {}}, "moving_mean_initializer": {"class_name": "Zeros", "config": {}}, "moving_variance_initializer": {"class_name": "Ones", "config": {}}, "beta_regularizer": null, "gamma_regularizer": null, "beta_constraint": null, "gamma_constraint": null, "freeze": true}, "inbound_nodes": [[["res4b2_branch2c2", 0, 0, {}]]]}, {"name": "res4b222", "class_name": "Add", "config": {"name": "res4b222", "trainable": true}, "inbound_nodes": [[["bn4b2_branch2c2", 0, 0, {}], ["res4b1_relu2", 0, 0, {}]]]}, {"name": "res4b2_relu2", "class_name": "Activation", "config": {"name": "res4b2_relu2", "trainable": true, "activation": "relu"}, "inbound_nodes": [[["res4b222", 0, 0, {}]]]}, {"name": "res4b3_branch2a2", "class_name": "Conv2D", "config": {"name": "res4b3_branch2a2", "trainable": true, "filters": 256, "kernel_size": [1, 1], "strides": [1, 1], "padding": "valid", "data_format": "channels_last", "dilation_rate": [1, 1], "activation": "linear", "use_bias": false, "kernel_initializer": {"class_name": "VarianceScaling", "config": {"scale": 2.0, "mode": "fan_in", "distribution": "normal", "seed": null}}, "bias_initializer": {"class_name": "Zeros", "config": {}}, "kernel_regularizer": null, "bias_regularizer": null, "activity_regularizer": null, "kernel_constraint": null, "bias_constraint": null}, "inbound_nodes": [[["res4b2_relu2", 0, 0, {}]]]}, {"name": "bn4b3_branch2a2", "class_name": "BatchNormalization", "config": {"name": "bn4b3_branch2a2", "trainable": false, "axis": 3, "momentum": 0.99, "epsilon": 1e-05, "center": true, "scale": true, "beta_initializer": {"class_name": "Zeros", "config": {}}, "gamma_initializer": {"class_name": "Ones", "config": {}}, "moving_mean_initializer": {"class_name": "Zeros", "config": {}}, "moving_variance_initializer": {"class_name": "Ones", "config": {}}, "beta_regularizer": null, "gamma_regularizer": null, "beta_constraint": null, "gamma_constraint": null, "freeze": true}, "inbound_nodes": [[["res4b3_branch2a2", 0, 0, {}]]]}, {"name": "res4b3_branch2a_relu2", "class_name": "Activation", "config": {"name": "res4b3_branch2a_relu2", "trainable": true, "activation": "relu"}, "inbound_nodes": [[["bn4b3_branch2a2", 0, 0, {}]]]}, {"name": "padding4b3_branch2b2", "class_name": "ZeroPadding2D", "config": {"name": "padding4b3_branch2b2", "trainable": true, "padding": [[1, 1], [1, 1]], "data_format": "channels_last"}, "inbound_nodes": [[["res4b3_branch2a_relu2", 0, 0, {}]]]}, {"name": "res4b3_branch2b2", "class_name": "Conv2D", "config": {"name": "res4b3_branch2b2", "trainable": true, "filters": 256, "kernel_size": [3, 3], "strides": [1, 1], "padding": "valid", "data_format": "channels_last", "dilation_rate": [1, 1], "activation": "linear", "use_bias": false, "kernel_initializer": {"class_name": "VarianceScaling", "config": {"scale": 2.0, "mode": "fan_in", "distribution": "normal", "seed": null}}, "bias_initializer": {"class_name": "Zeros", "config": {}}, "kernel_regularizer": null, "bias_regularizer": null, "activity_regularizer": null, "kernel_constraint": null, "bias_constraint": null}, "inbound_nodes": [[["padding4b3_branch2b2", 0, 0, {}]]]}, {"name": "bn4b3_branch2b2", "class_name": "BatchNormalization", "config": {"name": "bn4b3_branch2b2", "trainable": false, "axis": 3, "momentum": 0.99, "epsilon": 1e-05, "center": true, "scale": true, "beta_initializer": {"class_name": "Zeros", "config": {}}, "gamma_initializer": {"class_name": "Ones", "config": {}}, "moving_mean_initializer": {"class_name": "Zeros", "config": {}}, "moving_variance_initializer": {"class_name": "Ones", "config": {}}, "beta_regularizer": null, "gamma_regularizer": null, "beta_constraint": null, "gamma_constraint": null, "freeze": true}, "inbound_nodes": [[["res4b3_branch2b2", 0, 0, {}]]]}, {"name": "res4b3_branch2b_relu2", "class_name": "Activation", "config": {"name": "res4b3_branch2b_relu2", "trainable": true, "activation": "relu"}, "inbound_nodes": [[["bn4b3_branch2b2", 0, 0, {}]]]}, {"name": "res4b3_branch2c2", "class_name": "Conv2D", "config": {"name": "res4b3_branch2c2", "trainable": true, "filters": 1024, "kernel_size": [1, 1], "strides": [1, 1], "padding": "valid", "data_format": "channels_last", "dilation_rate": [1, 1], "activation": "linear", "use_bias": false, "kernel_initializer": {"class_name": "VarianceScaling", "config": {"scale": 2.0, "mode": "fan_in", "distribution": "normal", "seed": null}}, "bias_initializer": {"class_name": "Zeros", "config": {}}, "kernel_regularizer": null, "bias_regularizer": null, "activity_regularizer": null, "kernel_constraint": null, "bias_constraint": null}, "inbound_nodes": [[["res4b3_branch2b_relu2", 0, 0, {}]]]}, {"name": "bn4b3_branch2c2", "class_name": "BatchNormalization", "config": {"name": "bn4b3_branch2c2", "trainable": false, "axis": 3, "momentum": 0.99, "epsilon": 1e-05, "center": true, "scale": true, "beta_initializer": {"class_name": "Zeros", "config": {}}, "gamma_initializer": {"class_name": "Ones", "config": {}}, "moving_mean_initializer": {"class_name": "Zeros", "config": {}}, "moving_variance_initializer": {"class_name": "Ones", "config": {}}, "beta_regularizer": null, "gamma_regularizer": null, "beta_constraint": null, "gamma_constraint": null, "freeze": true}, "inbound_nodes": [[["res4b3_branch2c2", 0, 0, {}]]]}, {"name": "res4b322", "class_name": "Add", "config": {"name": "res4b322", "trainable": true}, "inbound_nodes": [[["bn4b3_branch2c2", 0, 0, {}], ["res4b2_relu2", 0, 0, {}]]]}, {"name": "res4b3_relu2", "class_name": "Activation", "config": {"name": "res4b3_relu2", "trainable": true, "activation": "relu"}, "inbound_nodes": [[["res4b322", 0, 0, {}]]]}, {"name": "res4b4_branch2a2", "class_name": "Conv2D", "config": {"name": "res4b4_branch2a2", "trainable": true, "filters": 256, "kernel_size": [1, 1], "strides": [1, 1], "padding": "valid", "data_format": "channels_last", "dilation_rate": [1, 1], "activation": "linear", "use_bias": false, "kernel_initializer": {"class_name": "VarianceScaling", "config": {"scale": 2.0, "mode": "fan_in", "distribution": "normal", "seed": null}}, "bias_initializer": {"class_name": "Zeros", "config": {}}, "kernel_regularizer": null, "bias_regularizer": null, "activity_regularizer": null, "kernel_constraint": null, "bias_constraint": null}, "inbound_nodes": [[["res4b3_relu2", 0, 0, {}]]]}, {"name": "bn4b4_branch2a2", "class_name": "BatchNormalization", "config": {"name": "bn4b4_branch2a2", "trainable": false, "axis": 3, "momentum": 0.99, "epsilon": 1e-05, "center": true, "scale": true, "beta_initializer": {"class_name": "Zeros", "config": {}}, "gamma_initializer": {"class_name": "Ones", "config": {}}, "moving_mean_initializer": {"class_name": "Zeros", "config": {}}, "moving_variance_initializer": {"class_name": "Ones", "config": {}}, "beta_regularizer": null, "gamma_regularizer": null, "beta_constraint": null, "gamma_constraint": null, "freeze": true}, "inbound_nodes": [[["res4b4_branch2a2", 0, 0, {}]]]}, {"name": "res4b4_branch2a_relu2", "class_name": "Activation", "config": {"name": "res4b4_branch2a_relu2", "trainable": true, "activation": "relu"}, "inbound_nodes": [[["bn4b4_branch2a2", 0, 0, {}]]]}, {"name": "padding4b4_branch2b2", "class_name": "ZeroPadding2D", "config": {"name": "padding4b4_branch2b2", "trainable": true, "padding": [[1, 1], [1, 1]], "data_format": "channels_last"}, "inbound_nodes": [[["res4b4_branch2a_relu2", 0, 0, {}]]]}, {"name": "res4b4_branch2b2", "class_name": "Conv2D", "config": {"name": "res4b4_branch2b2", "trainable": true, "filters": 256, "kernel_size": [3, 3], "strides": [1, 1], "padding": "valid", "data_format": "channels_last", "dilation_rate": [1, 1], "activation": "linear", "use_bias": false, "kernel_initializer": {"class_name": "VarianceScaling", "config": {"scale": 2.0, "mode": "fan_in", "distribution": "normal", "seed": null}}, "bias_initializer": {"class_name": "Zeros", "config": {}}, "kernel_regularizer": null, "bias_regularizer": null, "activity_regularizer": null, "kernel_constraint": null, "bias_constraint": null}, "inbound_nodes": [[["padding4b4_branch2b2", 0, 0, {}]]]}, {"name": "bn4b4_branch2b2", "class_name": "BatchNormalization", "config": {"name": "bn4b4_branch2b2", "trainable": false, "axis": 3, "momentum": 0.99, "epsilon": 1e-05, "center": true, "scale": true, "beta_initializer": {"class_name": "Zeros", "config": {}}, "gamma_initializer": {"class_name": "Ones", "config": {}}, "moving_mean_initializer": {"class_name": "Zeros", "config": {}}, "moving_variance_initializer": {"class_name": "Ones", "config": {}}, "beta_regularizer": null, "gamma_regularizer": null, "beta_constraint": null, "gamma_constraint": null, "freeze": true}, "inbound_nodes": [[["res4b4_branch2b2", 0, 0, {}]]]}, {"name": "res4b4_branch2b_relu2", "class_name": "Activation", "config": {"name": "res4b4_branch2b_relu2", "trainable": true, "activation": "relu"}, "inbound_nodes": [[["bn4b4_branch2b2", 0, 0, {}]]]}, {"name": "res4b4_branch2c2", "class_name": "Conv2D", "config": {"name": "res4b4_branch2c2", "trainable": true, "filters": 1024, "kernel_size": [1, 1], "strides": [1, 1], "padding": "valid", "data_format": "channels_last", "dilation_rate": [1, 1], "activation": "linear", "use_bias": false, "kernel_initializer": {"class_name": "VarianceScaling", "config": {"scale": 2.0, "mode": "fan_in", "distribution": "normal", "seed": null}}, "bias_initializer": {"class_name": "Zeros", "config": {}}, "kernel_regularizer": null, "bias_regularizer": null, "activity_regularizer": null, "kernel_constraint": null, "bias_constraint": null}, "inbound_nodes": [[["res4b4_branch2b_relu2", 0, 0, {}]]]}, {"name": "bn4b4_branch2c2", "class_name": "BatchNormalization", "config": {"name": "bn4b4_branch2c2", "trainable": false, "axis": 3, "momentum": 0.99, "epsilon": 1e-05, "center": true, "scale": true, "beta_initializer": {"class_name": "Zeros", "config": {}}, "gamma_initializer": {"class_name": "Ones", "config": {}}, "moving_mean_initializer": {"class_name": "Zeros", "config": {}}, "moving_variance_initializer": {"class_name": "Ones", "config": {}}, "beta_regularizer": null, "gamma_regularizer": null, "beta_constraint": null, "gamma_constraint": null, "freeze": true}, "inbound_nodes": [[["res4b4_branch2c2", 0, 0, {}]]]}, {"name": "res4b42", "class_name": "Add", "config": {"name": "res4b42", "trainable": true}, "inbound_nodes": [[["bn4b4_branch2c2", 0, 0, {}], ["res4b3_relu2", 0, 0, {}]]]}, {"name": "res4b4_relu2", "class_name": "Activation", "config": {"name": "res4b4_relu2", "trainable": true, "activation": "relu"}, "inbound_nodes": [[["res4b42", 0, 0, {}]]]}, {"name": "res4b5_branch2a2", "class_name": "Conv2D", "config": {"name": "res4b5_branch2a2", "trainable": true, "filters": 256, "kernel_size": [1, 1], "strides": [1, 1], "padding": "valid", "data_format": "channels_last", "dilation_rate": [1, 1], "activation": "linear", "use_bias": false, "kernel_initializer": {"class_name": "VarianceScaling", "config": {"scale": 2.0, "mode": "fan_in", "distribution": "normal", "seed": null}}, "bias_initializer": {"class_name": "Zeros", "config": {}}, "kernel_regularizer": null, "bias_regularizer": null, "activity_regularizer": null, "kernel_constraint": null, "bias_constraint": null}, "inbound_nodes": [[["res4b4_relu2", 0, 0, {}]]]}, {"name": "bn4b5_branch2a2", "class_name": "BatchNormalization", "config": {"name": "bn4b5_branch2a2", "trainable": false, "axis": 3, "momentum": 0.99, "epsilon": 1e-05, "center": true, "scale": true, "beta_initializer": {"class_name": "Zeros", "config": {}}, "gamma_initializer": {"class_name": "Ones", "config": {}}, "moving_mean_initializer": {"class_name": "Zeros", "config": {}}, "moving_variance_initializer": {"class_name": "Ones", "config": {}}, "beta_regularizer": null, "gamma_regularizer": null, "beta_constraint": null, "gamma_constraint": null, "freeze": true}, "inbound_nodes": [[["res4b5_branch2a2", 0, 0, {}]]]}, {"name": "res4b5_branch2a_relu2", "class_name": "Activation", "config": {"name": "res4b5_branch2a_relu2", "trainable": true, "activation": "relu"}, "inbound_nodes": [[["bn4b5_branch2a2", 0, 0, {}]]]}, {"name": "padding4b5_branch2b2", "class_name": "ZeroPadding2D", "config": {"name": "padding4b5_branch2b2", "trainable": true, "padding": [[1, 1], [1, 1]], "data_format": "channels_last"}, "inbound_nodes": [[["res4b5_branch2a_relu2", 0, 0, {}]]]}, {"name": "res4b5_branch2b2", "class_name": "Conv2D", "config": {"name": "res4b5_branch2b2", "trainable": true, "filters": 256, "kernel_size": [3, 3], "strides": [1, 1], "padding": "valid", "data_format": "channels_last", "dilation_rate": [1, 1], "activation": "linear", "use_bias": false, "kernel_initializer": {"class_name": "VarianceScaling", "config": {"scale": 2.0, "mode": "fan_in", "distribution": "normal", "seed": null}}, "bias_initializer": {"class_name": "Zeros", "config": {}}, "kernel_regularizer": null, "bias_regularizer": null, "activity_regularizer": null, "kernel_constraint": null, "bias_constraint": null}, "inbound_nodes": [[["padding4b5_branch2b2", 0, 0, {}]]]}, {"name": "bn4b5_branch2b2", "class_name": "BatchNormalization", "config": {"name": "bn4b5_branch2b2", "trainable": false, "axis": 3, "momentum": 0.99, "epsilon": 1e-05, "center": true, "scale": true, "beta_initializer": {"class_name": "Zeros", "config": {}}, "gamma_initializer": {"class_name": "Ones", "config": {}}, "moving_mean_initializer": {"class_name": "Zeros", "config": {}}, "moving_variance_initializer": {"class_name": "Ones", "config": {}}, "beta_regularizer": null, "gamma_regularizer": null, "beta_constraint": null, "gamma_constraint": null, "freeze": true}, "inbound_nodes": [[["res4b5_branch2b2", 0, 0, {}]]]}, {"name": "res4b5_branch2b_relu2", "class_name": "Activation", "config": {"name": "res4b5_branch2b_relu2", "trainable": true, "activation": "relu"}, "inbound_nodes": [[["bn4b5_branch2b2", 0, 0, {}]]]}, {"name": "res4b5_branch2c2", "class_name": "Conv2D", "config": {"name": "res4b5_branch2c2", "trainable": true, "filters": 1024, "kernel_size": [1, 1], "strides": [1, 1], "padding": "valid", "data_format": "channels_last", "dilation_rate": [1, 1], "activation": "linear", "use_bias": false, "kernel_initializer": {"class_name": "VarianceScaling", "config": {"scale": 2.0, "mode": "fan_in", "distribution": "normal", "seed": null}}, "bias_initializer": {"class_name": "Zeros", "config": {}}, "kernel_regularizer": null, "bias_regularizer": null, "activity_regularizer": null, "kernel_constraint": null, "bias_constraint": null}, "inbound_nodes": [[["res4b5_branch2b_relu2", 0, 0, {}]]]}, {"name": "bn4b5_branch2c2", "class_name": "BatchNormalization", "config": {"name": "bn4b5_branch2c2", "trainable": false, "axis": 3, "momentum": 0.99, "epsilon": 1e-05, "center": true, "scale": true, "beta_initializer": {"class_name": "Zeros", "config": {}}, "gamma_initializer": {"class_name": "Ones", "config": {}}, "moving_mean_initializer": {"class_name": "Zeros", "config": {}}, "moving_variance_initializer": {"class_name": "Ones", "config": {}}, "beta_regularizer": null, "gamma_regularizer": null, "beta_constraint": null, "gamma_constraint": null, "freeze": true}, "inbound_nodes": [[["res4b5_branch2c2", 0, 0, {}]]]}, {"name": "res4b52", "class_name": "Add", "config": {"name": "res4b52", "trainable": true}, "inbound_nodes": [[["bn4b5_branch2c2", 0, 0, {}], ["res4b4_relu2", 0, 0, {}]]]}, {"name": "res4b5_relu2", "class_name": "Activation", "config": {"name": "res4b5_relu2", "trainable": true, "activation": "relu"}, "inbound_nodes": [[["res4b52", 0, 0, {}]]]}, {"name": "res4b6_branch2a2", "class_name": "Conv2D", "config": {"name": "res4b6_branch2a2", "trainable": true, "filters": 256, "kernel_size": [1, 1], "strides": [1, 1], "padding": "valid", "data_format": "channels_last", "dilation_rate": [1, 1], "activation": "linear", "use_bias": false, "kernel_initializer": {"class_name": "VarianceScaling", "config": {"scale": 2.0, "mode": "fan_in", "distribution": "normal", "seed": null}}, "bias_initializer": {"class_name": "Zeros", "config": {}}, "kernel_regularizer": null, "bias_regularizer": null, "activity_regularizer": null, "kernel_constraint": null, "bias_constraint": null}, "inbound_nodes": [[["res4b5_relu2", 0, 0, {}]]]}, {"name": "bn4b6_branch2a2", "class_name": "BatchNormalization", "config": {"name": "bn4b6_branch2a2", "trainable": false, "axis": 3, "momentum": 0.99, "epsilon": 1e-05, "center": true, "scale": true, "beta_initializer": {"class_name": "Zeros", "config": {}}, "gamma_initializer": {"class_name": "Ones", "config": {}}, "moving_mean_initializer": {"class_name": "Zeros", "config": {}}, "moving_variance_initializer": {"class_name": "Ones", "config": {}}, "beta_regularizer": null, "gamma_regularizer": null, "beta_constraint": null, "gamma_constraint": null, "freeze": true}, "inbound_nodes": [[["res4b6_branch2a2", 0, 0, {}]]]}, {"name": "res4b6_branch2a_relu2", "class_name": "Activation", "config": {"name": "res4b6_branch2a_relu2", "trainable": true, "activation": "relu"}, "inbound_nodes": [[["bn4b6_branch2a2", 0, 0, {}]]]}, {"name": "padding4b6_branch2b2", "class_name": "ZeroPadding2D", "config": {"name": "padding4b6_branch2b2", "trainable": true, "padding": [[1, 1], [1, 1]], "data_format": "channels_last"}, "inbound_nodes": [[["res4b6_branch2a_relu2", 0, 0, {}]]]}, {"name": "res4b6_branch2b2", "class_name": "Conv2D", "config": {"name": "res4b6_branch2b2", "trainable": true, "filters": 256, "kernel_size": [3, 3], "strides": [1, 1], "padding": "valid", "data_format": "channels_last", "dilation_rate": [1, 1], "activation": "linear", "use_bias": false, "kernel_initializer": {"class_name": "VarianceScaling", "config": {"scale": 2.0, "mode": "fan_in", "distribution": "normal", "seed": null}}, "bias_initializer": {"class_name": "Zeros", "config": {}}, "kernel_regularizer": null, "bias_regularizer": null, "activity_regularizer": null, "kernel_constraint": null, "bias_constraint": null}, "inbound_nodes": [[["padding4b6_branch2b2", 0, 0, {}]]]}, {"name": "bn4b6_branch2b2", "class_name": "BatchNormalization", "config": {"name": "bn4b6_branch2b2", "trainable": false, "axis": 3, "momentum": 0.99, "epsilon": 1e-05, "center": true, "scale": true, "beta_initializer": {"class_name": "Zeros", "config": {}}, "gamma_initializer": {"class_name": "Ones", "config": {}}, "moving_mean_initializer": {"class_name": "Zeros", "config": {}}, "moving_variance_initializer": {"class_name": "Ones", "config": {}}, "beta_regularizer": null, "gamma_regularizer": null, "beta_constraint": null, "gamma_constraint": null, "freeze": true}, "inbound_nodes": [[["res4b6_branch2b2", 0, 0, {}]]]}, {"name": "res4b6_branch2b_relu2", "class_name": "Activation", "config": {"name": "res4b6_branch2b_relu2", "trainable": true, "activation": "relu"}, "inbound_nodes": [[["bn4b6_branch2b2", 0, 0, {}]]]}, {"name": "res4b6_branch2c2", "class_name": "Conv2D", "config": {"name": "res4b6_branch2c2", "trainable": true, "filters": 1024, "kernel_size": [1, 1], "strides": [1, 1], "padding": "valid", "data_format": "channels_last", "dilation_rate": [1, 1], "activation": "linear", "use_bias": false, "kernel_initializer": {"class_name": "VarianceScaling", "config": {"scale": 2.0, "mode": "fan_in", "distribution": "normal", "seed": null}}, "bias_initializer": {"class_name": "Zeros", "config": {}}, "kernel_regularizer": null, "bias_regularizer": null, "activity_regularizer": null, "kernel_constraint": null, "bias_constraint": null}, "inbound_nodes": [[["res4b6_branch2b_relu2", 0, 0, {}]]]}, {"name": "bn4b6_branch2c2", "class_name": "BatchNormalization", "config": {"name": "bn4b6_branch2c2", "trainable": false, "axis": 3, "momentum": 0.99, "epsilon": 1e-05, "center": true, "scale": true, "beta_initializer": {"class_name": "Zeros", "config": {}}, "gamma_initializer": {"class_name": "Ones", "config": {}}, "moving_mean_initializer": {"class_name": "Zeros", "config": {}}, "moving_variance_initializer": {"class_name": "Ones", "config": {}}, "beta_regularizer": null, "gamma_regularizer": null, "beta_constraint": null, "gamma_constraint": null, "freeze": true}, "inbound_nodes": [[["res4b6_branch2c2", 0, 0, {}]]]}, {"name": "res4b62", "class_name": "Add", "config": {"name": "res4b62", "trainable": true}, "inbound_nodes": [[["bn4b6_branch2c2", 0, 0, {}], ["res4b5_relu2", 0, 0, {}]]]}, {"name": "res4b6_relu2", "class_name": "Activation", "config": {"name": "res4b6_relu2", "trainable": true, "activation": "relu"}, "inbound_nodes": [[["res4b62", 0, 0, {}]]]}, {"name": "res4b7_branch2a2", "class_name": "Conv2D", "config": {"name": "res4b7_branch2a2", "trainable": true, "filters": 256, "kernel_size": [1, 1], "strides": [1, 1], "padding": "valid", "data_format": "channels_last", "dilation_rate": [1, 1], "activation": "linear", "use_bias": false, "kernel_initializer": {"class_name": "VarianceScaling", "config": {"scale": 2.0, "mode": "fan_in", "distribution": "normal", "seed": null}}, "bias_initializer": {"class_name": "Zeros", "config": {}}, "kernel_regularizer": null, "bias_regularizer": null, "activity_regularizer": null, "kernel_constraint": null, "bias_constraint": null}, "inbound_nodes": [[["res4b6_relu2", 0, 0, {}]]]}, {"name": "bn4b7_branch2a2", "class_name": "BatchNormalization", "config": {"name": "bn4b7_branch2a2", "trainable": false, "axis": 3, "momentum": 0.99, "epsilon": 1e-05, "center": true, "scale": true, "beta_initializer": {"class_name": "Zeros", "config": {}}, "gamma_initializer": {"class_name": "Ones", "config": {}}, "moving_mean_initializer": {"class_name": "Zeros", "config": {}}, "moving_variance_initializer": {"class_name": "Ones", "config": {}}, "beta_regularizer": null, "gamma_regularizer": null, "beta_constraint": null, "gamma_constraint": null, "freeze": true}, "inbound_nodes": [[["res4b7_branch2a2", 0, 0, {}]]]}, {"name": "res4b7_branch2a_relu2", "class_name": "Activation", "config": {"name": "res4b7_branch2a_relu2", "trainable": true, "activation": "relu"}, "inbound_nodes": [[["bn4b7_branch2a2", 0, 0, {}]]]}, {"name": "padding4b7_branch2b2", "class_name": "ZeroPadding2D", "config": {"name": "padding4b7_branch2b2", "trainable": true, "padding": [[1, 1], [1, 1]], "data_format": "channels_last"}, "inbound_nodes": [[["res4b7_branch2a_relu2", 0, 0, {}]]]}, {"name": "res4b7_branch2b2", "class_name": "Conv2D", "config": {"name": "res4b7_branch2b2", "trainable": true, "filters": 256, "kernel_size": [3, 3], "strides": [1, 1], "padding": "valid", "data_format": "channels_last", "dilation_rate": [1, 1], "activation": "linear", "use_bias": false, "kernel_initializer": {"class_name": "VarianceScaling", "config": {"scale": 2.0, "mode": "fan_in", "distribution": "normal", "seed": null}}, "bias_initializer": {"class_name": "Zeros", "config": {}}, "kernel_regularizer": null, "bias_regularizer": null, "activity_regularizer": null, "kernel_constraint": null, "bias_constraint": null}, "inbound_nodes": [[["padding4b7_branch2b2", 0, 0, {}]]]}, {"name": "bn4b7_branch2b2", "class_name": "BatchNormalization", "config": {"name": "bn4b7_branch2b2", "trainable": false, "axis": 3, "momentum": 0.99, "epsilon": 1e-05, "center": true, "scale": true, "beta_initializer": {"class_name": "Zeros", "config": {}}, "gamma_initializer": {"class_name": "Ones", "config": {}}, "moving_mean_initializer": {"class_name": "Zeros", "config": {}}, "moving_variance_initializer": {"class_name": "Ones", "config": {}}, "beta_regularizer": null, "gamma_regularizer": null, "beta_constraint": null, "gamma_constraint": null, "freeze": true}, "inbound_nodes": [[["res4b7_branch2b2", 0, 0, {}]]]}, {"name": "res4b7_branch2b_relu2", "class_name": "Activation", "config": {"name": "res4b7_branch2b_relu2", "trainable": true, "activation": "relu"}, "inbound_nodes": [[["bn4b7_branch2b2", 0, 0, {}]]]}, {"name": "res4b7_branch2c2", "class_name": "Conv2D", "config": {"name": "res4b7_branch2c2", "trainable": true, "filters": 1024, "kernel_size": [1, 1], "strides": [1, 1], "padding": "valid", "data_format": "channels_last", "dilation_rate": [1, 1], "activation": "linear", "use_bias": false, "kernel_initializer": {"class_name": "VarianceScaling", "config": {"scale": 2.0, "mode": "fan_in", "distribution": "normal", "seed": null}}, "bias_initializer": {"class_name": "Zeros", "config": {}}, "kernel_regularizer": null, "bias_regularizer": null, "activity_regularizer": null, "kernel_constraint": null, "bias_constraint": null}, "inbound_nodes": [[["res4b7_branch2b_relu2", 0, 0, {}]]]}, {"name": "bn4b7_branch2c2", "class_name": "BatchNormalization", "config": {"name": "bn4b7_branch2c2", "trainable": false, "axis": 3, "momentum": 0.99, "epsilon": 1e-05, "center": true, "scale": true, "beta_initializer": {"class_name": "Zeros", "config": {}}, "gamma_initializer": {"class_name": "Ones", "config": {}}, "moving_mean_initializer": {"class_name": "Zeros", "config": {}}, "moving_variance_initializer": {"class_name": "Ones", "config": {}}, "beta_regularizer": null, "gamma_regularizer": null, "beta_constraint": null, "gamma_constraint": null, "freeze": true}, "inbound_nodes": [[["res4b7_branch2c2", 0, 0, {}]]]}, {"name": "res4b72", "class_name": "Add", "config": {"name": "res4b72", "trainable": true}, "inbound_nodes": [[["bn4b7_branch2c2", 0, 0, {}], ["res4b6_relu2", 0, 0, {}]]]}, {"name": "res4b7_relu2", "class_name": "Activation", "config": {"name": "res4b7_relu2", "trainable": true, "activation": "relu"}, "inbound_nodes": [[["res4b72", 0, 0, {}]]]}, {"name": "res4b8_branch2a2", "class_name": "Conv2D", "config": {"name": "res4b8_branch2a2", "trainable": true, "filters": 256, "kernel_size": [1, 1], "strides": [1, 1], "padding": "valid", "data_format": "channels_last", "dilation_rate": [1, 1], "activation": "linear", "use_bias": false, "kernel_initializer": {"class_name": "VarianceScaling", "config": {"scale": 2.0, "mode": "fan_in", "distribution": "normal", "seed": null}}, "bias_initializer": {"class_name": "Zeros", "config": {}}, "kernel_regularizer": null, "bias_regularizer": null, "activity_regularizer": null, "kernel_constraint": null, "bias_constraint": null}, "inbound_nodes": [[["res4b7_relu2", 0, 0, {}]]]}, {"name": "bn4b8_branch2a2", "class_name": "BatchNormalization", "config": {"name": "bn4b8_branch2a2", "trainable": false, "axis": 3, "momentum": 0.99, "epsilon": 1e-05, "center": true, "scale": true, "beta_initializer": {"class_name": "Zeros", "config": {}}, "gamma_initializer": {"class_name": "Ones", "config": {}}, "moving_mean_initializer": {"class_name": "Zeros", "config": {}}, "moving_variance_initializer": {"class_name": "Ones", "config": {}}, "beta_regularizer": null, "gamma_regularizer": null, "beta_constraint": null, "gamma_constraint": null, "freeze": true}, "inbound_nodes": [[["res4b8_branch2a2", 0, 0, {}]]]}, {"name": "res4b8_branch2a_relu2", "class_name": "Activation", "config": {"name": "res4b8_branch2a_relu2", "trainable": true, "activation": "relu"}, "inbound_nodes": [[["bn4b8_branch2a2", 0, 0, {}]]]}, {"name": "padding4b8_branch2b2", "class_name": "ZeroPadding2D", "config": {"name": "padding4b8_branch2b2", "trainable": true, "padding": [[1, 1], [1, 1]], "data_format": "channels_last"}, "inbound_nodes": [[["res4b8_branch2a_relu2", 0, 0, {}]]]}, {"name": "res4b8_branch2b2", "class_name": "Conv2D", "config": {"name": "res4b8_branch2b2", "trainable": true, "filters": 256, "kernel_size": [3, 3], "strides": [1, 1], "padding": "valid", "data_format": "channels_last", "dilation_rate": [1, 1], "activation": "linear", "use_bias": false, "kernel_initializer": {"class_name": "VarianceScaling", "config": {"scale": 2.0, "mode": "fan_in", "distribution": "normal", "seed": null}}, "bias_initializer": {"class_name": "Zeros", "config": {}}, "kernel_regularizer": null, "bias_regularizer": null, "activity_regularizer": null, "kernel_constraint": null, "bias_constraint": null}, "inbound_nodes": [[["padding4b8_branch2b2", 0, 0, {}]]]}, {"name": "bn4b8_branch2b2", "class_name": "BatchNormalization", "config": {"name": "bn4b8_branch2b2", "trainable": false, "axis": 3, "momentum": 0.99, "epsilon": 1e-05, "center": true, "scale": true, "beta_initializer": {"class_name": "Zeros", "config": {}}, "gamma_initializer": {"class_name": "Ones", "config": {}}, "moving_mean_initializer": {"class_name": "Zeros", "config": {}}, "moving_variance_initializer": {"class_name": "Ones", "config": {}}, "beta_regularizer": null, "gamma_regularizer": null, "beta_constraint": null, "gamma_constraint": null, "freeze": true}, "inbound_nodes": [[["res4b8_branch2b2", 0, 0, {}]]]}, {"name": "res4b8_branch2b_relu2", "class_name": "Activation", "config": {"name": "res4b8_branch2b_relu2", "trainable": true, "activation": "relu"}, "inbound_nodes": [[["bn4b8_branch2b2", 0, 0, {}]]]}, {"name": "res4b8_branch2c2", "class_name": "Conv2D", "config": {"name": "res4b8_branch2c2", "trainable": true, "filters": 1024, "kernel_size": [1, 1], "strides": [1, 1], "padding": "valid", "data_format": "channels_last", "dilation_rate": [1, 1], "activation": "linear", "use_bias": false, "kernel_initializer": {"class_name": "VarianceScaling", "config": {"scale": 2.0, "mode": "fan_in", "distribution": "normal", "seed": null}}, "bias_initializer": {"class_name": "Zeros", "config": {}}, "kernel_regularizer": null, "bias_regularizer": null, "activity_regularizer": null, "kernel_constraint": null, "bias_constraint": null}, "inbound_nodes": [[["res4b8_branch2b_relu2", 0, 0, {}]]]}, {"name": "bn4b8_branch2c2", "class_name": "BatchNormalization", "config": {"name": "bn4b8_branch2c2", "trainable": false, "axis": 3, "momentum": 0.99, "epsilon": 1e-05, "center": true, "scale": true, "beta_initializer": {"class_name": "Zeros", "config": {}}, "gamma_initializer": {"class_name": "Ones", "config": {}}, "moving_mean_initializer": {"class_name": "Zeros", "config": {}}, "moving_variance_initializer": {"class_name": "Ones", "config": {}}, "beta_regularizer": null, "gamma_regularizer": null, "beta_constraint": null, "gamma_constraint": null, "freeze": true}, "inbound_nodes": [[["res4b8_branch2c2", 0, 0, {}]]]}, {"name": "res4b82", "class_name": "Add", "config": {"name": "res4b82", "trainable": true}, "inbound_nodes": [[["bn4b8_branch2c2", 0, 0, {}], ["res4b7_relu2", 0, 0, {}]]]}, {"name": "res4b8_relu2", "class_name": "Activation", "config": {"name": "res4b8_relu2", "trainable": true, "activation": "relu"}, "inbound_nodes": [[["res4b82", 0, 0, {}]]]}, {"name": "res4b9_branch2a2", "class_name": "Conv2D", "config": {"name": "res4b9_branch2a2", "trainable": true, "filters": 256, "kernel_size": [1, 1], "strides": [1, 1], "padding": "valid", "data_format": "channels_last", "dilation_rate": [1, 1], "activation": "linear", "use_bias": false, "kernel_initializer": {"class_name": "VarianceScaling", "config": {"scale": 2.0, "mode": "fan_in", "distribution": "normal", "seed": null}}, "bias_initializer": {"class_name": "Zeros", "config": {}}, "kernel_regularizer": null, "bias_regularizer": null, "activity_regularizer": null, "kernel_constraint": null, "bias_constraint": null}, "inbound_nodes": [[["res4b8_relu2", 0, 0, {}]]]}, {"name": "bn4b9_branch2a2", "class_name": "BatchNormalization", "config": {"name": "bn4b9_branch2a2", "trainable": false, "axis": 3, "momentum": 0.99, "epsilon": 1e-05, "center": true, "scale": true, "beta_initializer": {"class_name": "Zeros", "config": {}}, "gamma_initializer": {"class_name": "Ones", "config": {}}, "moving_mean_initializer": {"class_name": "Zeros", "config": {}}, "moving_variance_initializer": {"class_name": "Ones", "config": {}}, "beta_regularizer": null, "gamma_regularizer": null, "beta_constraint": null, "gamma_constraint": null, "freeze": true}, "inbound_nodes": [[["res4b9_branch2a2", 0, 0, {}]]]}, {"name": "res4b9_branch2a_relu2", "class_name": "Activation", "config": {"name": "res4b9_branch2a_relu2", "trainable": true, "activation": "relu"}, "inbound_nodes": [[["bn4b9_branch2a2", 0, 0, {}]]]}, {"name": "padding4b9_branch2b2", "class_name": "ZeroPadding2D", "config": {"name": "padding4b9_branch2b2", "trainable": true, "padding": [[1, 1], [1, 1]], "data_format": "channels_last"}, "inbound_nodes": [[["res4b9_branch2a_relu2", 0, 0, {}]]]}, {"name": "res4b9_branch2b2", "class_name": "Conv2D", "config": {"name": "res4b9_branch2b2", "trainable": true, "filters": 256, "kernel_size": [3, 3], "strides": [1, 1], "padding": "valid", "data_format": "channels_last", "dilation_rate": [1, 1], "activation": "linear", "use_bias": false, "kernel_initializer": {"class_name": "VarianceScaling", "config": {"scale": 2.0, "mode": "fan_in", "distribution": "normal", "seed": null}}, "bias_initializer": {"class_name": "Zeros", "config": {}}, "kernel_regularizer": null, "bias_regularizer": null, "activity_regularizer": null, "kernel_constraint": null, "bias_constraint": null}, "inbound_nodes": [[["padding4b9_branch2b2", 0, 0, {}]]]}, {"name": "bn4b9_branch2b2", "class_name": "BatchNormalization", "config": {"name": "bn4b9_branch2b2", "trainable": false, "axis": 3, "momentum": 0.99, "epsilon": 1e-05, "center": true, "scale": true, "beta_initializer": {"class_name": "Zeros", "config": {}}, "gamma_initializer": {"class_name": "Ones", "config": {}}, "moving_mean_initializer": {"class_name": "Zeros", "config": {}}, "moving_variance_initializer": {"class_name": "Ones", "config": {}}, "beta_regularizer": null, "gamma_regularizer": null, "beta_constraint": null, "gamma_constraint": null, "freeze": true}, "inbound_nodes": [[["res4b9_branch2b2", 0, 0, {}]]]}, {"name": "res4b9_branch2b_relu2", "class_name": "Activation", "config": {"name": "res4b9_branch2b_relu2", "trainable": true, "activation": "relu"}, "inbound_nodes": [[["bn4b9_branch2b2", 0, 0, {}]]]}, {"name": "res4b9_branch2c2", "class_name": "Conv2D", "config": {"name": "res4b9_branch2c2", "trainable": true, "filters": 1024, "kernel_size": [1, 1], "strides": [1, 1], "padding": "valid", "data_format": "channels_last", "dilation_rate": [1, 1], "activation": "linear", "use_bias": false, "kernel_initializer": {"class_name": "VarianceScaling", "config": {"scale": 2.0, "mode": "fan_in", "distribution": "normal", "seed": null}}, "bias_initializer": {"class_name": "Zeros", "config": {}}, "kernel_regularizer": null, "bias_regularizer": null, "activity_regularizer": null, "kernel_constraint": null, "bias_constraint": null}, "inbound_nodes": [[["res4b9_branch2b_relu2", 0, 0, {}]]]}, {"name": "bn4b9_branch2c2", "class_name": "BatchNormalization", "config": {"name": "bn4b9_branch2c2", "trainable": false, "axis": 3, "momentum": 0.99, "epsilon": 1e-05, "center": true, "scale": true, "beta_initializer": {"class_name": "Zeros", "config": {}}, "gamma_initializer": {"class_name": "Ones", "config": {}}, "moving_mean_initializer": {"class_name": "Zeros", "config": {}}, "moving_variance_initializer": {"class_name": "Ones", "config": {}}, "beta_regularizer": null, "gamma_regularizer": null, "beta_constraint": null, "gamma_constraint": null, "freeze": true}, "inbound_nodes": [[["res4b9_branch2c2", 0, 0, {}]]]}, {"name": "res4b92", "class_name": "Add", "config": {"name": "res4b92", "trainable": true}, "inbound_nodes": [[["bn4b9_branch2c2", 0, 0, {}], ["res4b8_relu2", 0, 0, {}]]]}, {"name": "res4b9_relu2", "class_name": "Activation", "config": {"name": "res4b9_relu2", "trainable": true, "activation": "relu"}, "inbound_nodes": [[["res4b92", 0, 0, {}]]]}, {"name": "res4b10_branch2a2", "class_name": "Conv2D", "config": {"name": "res4b10_branch2a2", "trainable": true, "filters": 256, "kernel_size": [1, 1], "strides": [1, 1], "padding": "valid", "data_format": "channels_last", "dilation_rate": [1, 1], "activation": "linear", "use_bias": false, "kernel_initializer": {"class_name": "VarianceScaling", "config": {"scale": 2.0, "mode": "fan_in", "distribution": "normal", "seed": null}}, "bias_initializer": {"class_name": "Zeros", "config": {}}, "kernel_regularizer": null, "bias_regularizer": null, "activity_regularizer": null, "kernel_constraint": null, "bias_constraint": null}, "inbound_nodes": [[["res4b9_relu2", 0, 0, {}]]]}, {"name": "bn4b10_branch2a2", "class_name": "BatchNormalization", "config": {"name": "bn4b10_branch2a2", "trainable": false, "axis": 3, "momentum": 0.99, "epsilon": 1e-05, "center": true, "scale": true, "beta_initializer": {"class_name": "Zeros", "config": {}}, "gamma_initializer": {"class_name": "Ones", "config": {}}, "moving_mean_initializer": {"class_name": "Zeros", "config": {}}, "moving_variance_initializer": {"class_name": "Ones", "config": {}}, "beta_regularizer": null, "gamma_regularizer": null, "beta_constraint": null, "gamma_constraint": null, "freeze": true}, "inbound_nodes": [[["res4b10_branch2a2", 0, 0, {}]]]}, {"name": "res4b10_branch2a_relu2", "class_name": "Activation", "config": {"name": "res4b10_branch2a_relu2", "trainable": true, "activation": "relu"}, "inbound_nodes": [[["bn4b10_branch2a2", 0, 0, {}]]]}, {"name": "padding4b10_branch2b2", "class_name": "ZeroPadding2D", "config": {"name": "padding4b10_branch2b2", "trainable": true, "padding": [[1, 1], [1, 1]], "data_format": "channels_last"}, "inbound_nodes": [[["res4b10_branch2a_relu2", 0, 0, {}]]]}, {"name": "res4b10_branch2b2", "class_name": "Conv2D", "config": {"name": "res4b10_branch2b2", "trainable": true, "filters": 256, "kernel_size": [3, 3], "strides": [1, 1], "padding": "valid", "data_format": "channels_last", "dilation_rate": [1, 1], "activation": "linear", "use_bias": false, "kernel_initializer": {"class_name": "VarianceScaling", "config": {"scale": 2.0, "mode": "fan_in", "distribution": "normal", "seed": null}}, "bias_initializer": {"class_name": "Zeros", "config": {}}, "kernel_regularizer": null, "bias_regularizer": null, "activity_regularizer": null, "kernel_constraint": null, "bias_constraint": null}, "inbound_nodes": [[["padding4b10_branch2b2", 0, 0, {}]]]}, {"name": "bn4b10_branch2b2", "class_name": "BatchNormalization", "config": {"name": "bn4b10_branch2b2", "trainable": false, "axis": 3, "momentum": 0.99, "epsilon": 1e-05, "center": true, "scale": true, "beta_initializer": {"class_name": "Zeros", "config": {}}, "gamma_initializer": {"class_name": "Ones", "config": {}}, "moving_mean_initializer": {"class_name": "Zeros", "config": {}}, "moving_variance_initializer": {"class_name": "Ones", "config": {}}, "beta_regularizer": null, "gamma_regularizer": null, "beta_constraint": null, "gamma_constraint": null, "freeze": true}, "inbound_nodes": [[["res4b10_branch2b2", 0, 0, {}]]]}, {"name": "res4b10_branch2b_relu2", "class_name": "Activation", "config": {"name": "res4b10_branch2b_relu2", "trainable": true, "activation": "relu"}, "inbound_nodes": [[["bn4b10_branch2b2", 0, 0, {}]]]}, {"name": "res4b10_branch2c2", "class_name": "Conv2D", "config": {"name": "res4b10_branch2c2", "trainable": true, "filters": 1024, "kernel_size": [1, 1], "strides": [1, 1], "padding": "valid", "data_format": "channels_last", "dilation_rate": [1, 1], "activation": "linear", "use_bias": false, "kernel_initializer": {"class_name": "VarianceScaling", "config": {"scale": 2.0, "mode": "fan_in", "distribution": "normal", "seed": null}}, "bias_initializer": {"class_name": "Zeros", "config": {}}, "kernel_regularizer": null, "bias_regularizer": null, "activity_regularizer": null, "kernel_constraint": null, "bias_constraint": null}, "inbound_nodes": [[["res4b10_branch2b_relu2", 0, 0, {}]]]}, {"name": "bn4b10_branch2c2", "class_name": "BatchNormalization", "config": {"name": "bn4b10_branch2c2", "trainable": false, "axis": 3, "momentum": 0.99, "epsilon": 1e-05, "center": true, "scale": true, "beta_initializer": {"class_name": "Zeros", "config": {}}, "gamma_initializer": {"class_name": "Ones", "config": {}}, "moving_mean_initializer": {"class_name": "Zeros", "config": {}}, "moving_variance_initializer": {"class_name": "Ones", "config": {}}, "beta_regularizer": null, "gamma_regularizer": null, "beta_constraint": null, "gamma_constraint": null, "freeze": true}, "inbound_nodes": [[["res4b10_branch2c2", 0, 0, {}]]]}, {"name": "res4b102", "class_name": "Add", "config": {"name": "res4b102", "trainable": true}, "inbound_nodes": [[["bn4b10_branch2c2", 0, 0, {}], ["res4b9_relu2", 0, 0, {}]]]}, {"name": "res4b10_relu2", "class_name": "Activation", "config": {"name": "res4b10_relu2", "trainable": true, "activation": "relu"}, "inbound_nodes": [[["res4b102", 0, 0, {}]]]}, {"name": "res4b11_branch2a2", "class_name": "Conv2D", "config": {"name": "res4b11_branch2a2", "trainable": true, "filters": 256, "kernel_size": [1, 1], "strides": [1, 1], "padding": "valid", "data_format": "channels_last", "dilation_rate": [1, 1], "activation": "linear", "use_bias": false, "kernel_initializer": {"class_name": "VarianceScaling", "config": {"scale": 2.0, "mode": "fan_in", "distribution": "normal", "seed": null}}, "bias_initializer": {"class_name": "Zeros", "config": {}}, "kernel_regularizer": null, "bias_regularizer": null, "activity_regularizer": null, "kernel_constraint": null, "bias_constraint": null}, "inbound_nodes": [[["res4b10_relu2", 0, 0, {}]]]}, {"name": "bn4b11_branch2a2", "class_name": "BatchNormalization", "config": {"name": "bn4b11_branch2a2", "trainable": false, "axis": 3, "momentum": 0.99, "epsilon": 1e-05, "center": true, "scale": true, "beta_initializer": {"class_name": "Zeros", "config": {}}, "gamma_initializer": {"class_name": "Ones", "config": {}}, "moving_mean_initializer": {"class_name": "Zeros", "config": {}}, "moving_variance_initializer": {"class_name": "Ones", "config": {}}, "beta_regularizer": null, "gamma_regularizer": null, "beta_constraint": null, "gamma_constraint": null, "freeze": true}, "inbound_nodes": [[["res4b11_branch2a2", 0, 0, {}]]]}, {"name": "res4b11_branch2a_relu2", "class_name": "Activation", "config": {"name": "res4b11_branch2a_relu2", "trainable": true, "activation": "relu"}, "inbound_nodes": [[["bn4b11_branch2a2", 0, 0, {}]]]}, {"name": "padding4b11_branch2b2", "class_name": "ZeroPadding2D", "config": {"name": "padding4b11_branch2b2", "trainable": true, "padding": [[1, 1], [1, 1]], "data_format": "channels_last"}, "inbound_nodes": [[["res4b11_branch2a_relu2", 0, 0, {}]]]}, {"name": "res4b11_branch2b2", "class_name": "Conv2D", "config": {"name": "res4b11_branch2b2", "trainable": true, "filters": 256, "kernel_size": [3, 3], "strides": [1, 1], "padding": "valid", "data_format": "channels_last", "dilation_rate": [1, 1], "activation": "linear", "use_bias": false, "kernel_initializer": {"class_name": "VarianceScaling", "config": {"scale": 2.0, "mode": "fan_in", "distribution": "normal", "seed": null}}, "bias_initializer": {"class_name": "Zeros", "config": {}}, "kernel_regularizer": null, "bias_regularizer": null, "activity_regularizer": null, "kernel_constraint": null, "bias_constraint": null}, "inbound_nodes": [[["padding4b11_branch2b2", 0, 0, {}]]]}, {"name": "bn4b11_branch2b2", "class_name": "BatchNormalization", "config": {"name": "bn4b11_branch2b2", "trainable": false, "axis": 3, "momentum": 0.99, "epsilon": 1e-05, "center": true, "scale": true, "beta_initializer": {"class_name": "Zeros", "config": {}}, "gamma_initializer": {"class_name": "Ones", "config": {}}, "moving_mean_initializer": {"class_name": "Zeros", "config": {}}, "moving_variance_initializer": {"class_name": "Ones", "config": {}}, "beta_regularizer": null, "gamma_regularizer": null, "beta_constraint": null, "gamma_constraint": null, "freeze": true}, "inbound_nodes": [[["res4b11_branch2b2", 0, 0, {}]]]}, {"name": "res4b11_branch2b_relu2", "class_name": "Activation", "config": {"name": "res4b11_branch2b_relu2", "trainable": true, "activation": "relu"}, "inbound_nodes": [[["bn4b11_branch2b2", 0, 0, {}]]]}, {"name": "res4b11_branch2c2", "class_name": "Conv2D", "config": {"name": "res4b11_branch2c2", "trainable": true, "filters": 1024, "kernel_size": [1, 1], "strides": [1, 1], "padding": "valid", "data_format": "channels_last", "dilation_rate": [1, 1], "activation": "linear", "use_bias": false, "kernel_initializer": {"class_name": "VarianceScaling", "config": {"scale": 2.0, "mode": "fan_in", "distribution": "normal", "seed": null}}, "bias_initializer": {"class_name": "Zeros", "config": {}}, "kernel_regularizer": null, "bias_regularizer": null, "activity_regularizer": null, "kernel_constraint": null, "bias_constraint": null}, "inbound_nodes": [[["res4b11_branch2b_relu2", 0, 0, {}]]]}, {"name": "bn4b11_branch2c2", "class_name": "BatchNormalization", "config": {"name": "bn4b11_branch2c2", "trainable": false, "axis": 3, "momentum": 0.99, "epsilon": 1e-05, "center": true, "scale": true, "beta_initializer": {"class_name": "Zeros", "config": {}}, "gamma_initializer": {"class_name": "Ones", "config": {}}, "moving_mean_initializer": {"class_name": "Zeros", "config": {}}, "moving_variance_initializer": {"class_name": "Ones", "config": {}}, "beta_regularizer": null, "gamma_regularizer": null, "beta_constraint": null, "gamma_constraint": null, "freeze": true}, "inbound_nodes": [[["res4b11_branch2c2", 0, 0, {}]]]}, {"name": "res4b112", "class_name": "Add", "config": {"name": "res4b112", "trainable": true}, "inbound_nodes": [[["bn4b11_branch2c2", 0, 0, {}], ["res4b10_relu2", 0, 0, {}]]]}, {"name": "res4b11_relu2", "class_name": "Activation", "config": {"name": "res4b11_relu2", "trainable": true, "activation": "relu"}, "inbound_nodes": [[["res4b112", 0, 0, {}]]]}, {"name": "res4b12_branch2a2", "class_name": "Conv2D", "config": {"name": "res4b12_branch2a2", "trainable": true, "filters": 256, "kernel_size": [1, 1], "strides": [1, 1], "padding": "valid", "data_format": "channels_last", "dilation_rate": [1, 1], "activation": "linear", "use_bias": false, "kernel_initializer": {"class_name": "VarianceScaling", "config": {"scale": 2.0, "mode": "fan_in", "distribution": "normal", "seed": null}}, "bias_initializer": {"class_name": "Zeros", "config": {}}, "kernel_regularizer": null, "bias_regularizer": null, "activity_regularizer": null, "kernel_constraint": null, "bias_constraint": null}, "inbound_nodes": [[["res4b11_relu2", 0, 0, {}]]]}, {"name": "bn4b12_branch2a2", "class_name": "BatchNormalization", "config": {"name": "bn4b12_branch2a2", "trainable": false, "axis": 3, "momentum": 0.99, "epsilon": 1e-05, "center": true, "scale": true, "beta_initializer": {"class_name": "Zeros", "config": {}}, "gamma_initializer": {"class_name": "Ones", "config": {}}, "moving_mean_initializer": {"class_name": "Zeros", "config": {}}, "moving_variance_initializer": {"class_name": "Ones", "config": {}}, "beta_regularizer": null, "gamma_regularizer": null, "beta_constraint": null, "gamma_constraint": null, "freeze": true}, "inbound_nodes": [[["res4b12_branch2a2", 0, 0, {}]]]}, {"name": "res4b12_branch2a_relu2", "class_name": "Activation", "config": {"name": "res4b12_branch2a_relu2", "trainable": true, "activation": "relu"}, "inbound_nodes": [[["bn4b12_branch2a2", 0, 0, {}]]]}, {"name": "padding4b12_branch2b2", "class_name": "ZeroPadding2D", "config": {"name": "padding4b12_branch2b2", "trainable": true, "padding": [[1, 1], [1, 1]], "data_format": "channels_last"}, "inbound_nodes": [[["res4b12_branch2a_relu2", 0, 0, {}]]]}, {"name": "res4b12_branch2b2", "class_name": "Conv2D", "config": {"name": "res4b12_branch2b2", "trainable": true, "filters": 256, "kernel_size": [3, 3], "strides": [1, 1], "padding": "valid", "data_format": "channels_last", "dilation_rate": [1, 1], "activation": "linear", "use_bias": false, "kernel_initializer": {"class_name": "VarianceScaling", "config": {"scale": 2.0, "mode": "fan_in", "distribution": "normal", "seed": null}}, "bias_initializer": {"class_name": "Zeros", "config": {}}, "kernel_regularizer": null, "bias_regularizer": null, "activity_regularizer": null, "kernel_constraint": null, "bias_constraint": null}, "inbound_nodes": [[["padding4b12_branch2b2", 0, 0, {}]]]}, {"name": "bn4b12_branch2b2", "class_name": "BatchNormalization", "config": {"name": "bn4b12_branch2b2", "trainable": false, "axis": 3, "momentum": 0.99, "epsilon": 1e-05, "center": true, "scale": true, "beta_initializer": {"class_name": "Zeros", "config": {}}, "gamma_initializer": {"class_name": "Ones", "config": {}}, "moving_mean_initializer": {"class_name": "Zeros", "config": {}}, "moving_variance_initializer": {"class_name": "Ones", "config": {}}, "beta_regularizer": null, "gamma_regularizer": null, "beta_constraint": null, "gamma_constraint": null, "freeze": true}, "inbound_nodes": [[["res4b12_branch2b2", 0, 0, {}]]]}, {"name": "res4b12_branch2b_relu2", "class_name": "Activation", "config": {"name": "res4b12_branch2b_relu2", "trainable": true, "activation": "relu"}, "inbound_nodes": [[["bn4b12_branch2b2", 0, 0, {}]]]}, {"name": "res4b12_branch2c2", "class_name": "Conv2D", "config": {"name": "res4b12_branch2c2", "trainable": true, "filters": 1024, "kernel_size": [1, 1], "strides": [1, 1], "padding": "valid", "data_format": "channels_last", "dilation_rate": [1, 1], "activation": "linear", "use_bias": false, "kernel_initializer": {"class_name": "VarianceScaling", "config": {"scale": 2.0, "mode": "fan_in", "distribution": "normal", "seed": null}}, "bias_initializer": {"class_name": "Zeros", "config": {}}, "kernel_regularizer": null, "bias_regularizer": null, "activity_regularizer": null, "kernel_constraint": null, "bias_constraint": null}, "inbound_nodes": [[["res4b12_branch2b_relu2", 0, 0, {}]]]}, {"name": "bn4b12_branch2c2", "class_name": "BatchNormalization", "config": {"name": "bn4b12_branch2c2", "trainable": false, "axis": 3, "momentum": 0.99, "epsilon": 1e-05, "center": true, "scale": true, "beta_initializer": {"class_name": "Zeros", "config": {}}, "gamma_initializer": {"class_name": "Ones", "config": {}}, "moving_mean_initializer": {"class_name": "Zeros", "config": {}}, "moving_variance_initializer": {"class_name": "Ones", "config": {}}, "beta_regularizer": null, "gamma_regularizer": null, "beta_constraint": null, "gamma_constraint": null, "freeze": true}, "inbound_nodes": [[["res4b12_branch2c2", 0, 0, {}]]]}, {"name": "res4b1222", "class_name": "Add", "config": {"name": "res4b1222", "trainable": true}, "inbound_nodes": [[["bn4b12_branch2c2", 0, 0, {}], ["res4b11_relu2", 0, 0, {}]]]}, {"name": "res4b12_relu2", "class_name": "Activation", "config": {"name": "res4b12_relu2", "trainable": true, "activation": "relu"}, "inbound_nodes": [[["res4b1222", 0, 0, {}]]]}, {"name": "res4b13_branch2a2", "class_name": "Conv2D", "config": {"name": "res4b13_branch2a2", "trainable": true, "filters": 256, "kernel_size": [1, 1], "strides": [1, 1], "padding": "valid", "data_format": "channels_last", "dilation_rate": [1, 1], "activation": "linear", "use_bias": false, "kernel_initializer": {"class_name": "VarianceScaling", "config": {"scale": 2.0, "mode": "fan_in", "distribution": "normal", "seed": null}}, "bias_initializer": {"class_name": "Zeros", "config": {}}, "kernel_regularizer": null, "bias_regularizer": null, "activity_regularizer": null, "kernel_constraint": null, "bias_constraint": null}, "inbound_nodes": [[["res4b12_relu2", 0, 0, {}]]]}, {"name": "bn4b13_branch2a2", "class_name": "BatchNormalization", "config": {"name": "bn4b13_branch2a2", "trainable": false, "axis": 3, "momentum": 0.99, "epsilon": 1e-05, "center": true, "scale": true, "beta_initializer": {"class_name": "Zeros", "config": {}}, "gamma_initializer": {"class_name": "Ones", "config": {}}, "moving_mean_initializer": {"class_name": "Zeros", "config": {}}, "moving_variance_initializer": {"class_name": "Ones", "config": {}}, "beta_regularizer": null, "gamma_regularizer": null, "beta_constraint": null, "gamma_constraint": null, "freeze": true}, "inbound_nodes": [[["res4b13_branch2a2", 0, 0, {}]]]}, {"name": "res4b13_branch2a_relu2", "class_name": "Activation", "config": {"name": "res4b13_branch2a_relu2", "trainable": true, "activation": "relu"}, "inbound_nodes": [[["bn4b13_branch2a2", 0, 0, {}]]]}, {"name": "padding4b13_branch2b2", "class_name": "ZeroPadding2D", "config": {"name": "padding4b13_branch2b2", "trainable": true, "padding": [[1, 1], [1, 1]], "data_format": "channels_last"}, "inbound_nodes": [[["res4b13_branch2a_relu2", 0, 0, {}]]]}, {"name": "res4b13_branch2b2", "class_name": "Conv2D", "config": {"name": "res4b13_branch2b2", "trainable": true, "filters": 256, "kernel_size": [3, 3], "strides": [1, 1], "padding": "valid", "data_format": "channels_last", "dilation_rate": [1, 1], "activation": "linear", "use_bias": false, "kernel_initializer": {"class_name": "VarianceScaling", "config": {"scale": 2.0, "mode": "fan_in", "distribution": "normal", "seed": null}}, "bias_initializer": {"class_name": "Zeros", "config": {}}, "kernel_regularizer": null, "bias_regularizer": null, "activity_regularizer": null, "kernel_constraint": null, "bias_constraint": null}, "inbound_nodes": [[["padding4b13_branch2b2", 0, 0, {}]]]}, {"name": "bn4b13_branch2b2", "class_name": "BatchNormalization", "config": {"name": "bn4b13_branch2b2", "trainable": false, "axis": 3, "momentum": 0.99, "epsilon": 1e-05, "center": true, "scale": true, "beta_initializer": {"class_name": "Zeros", "config": {}}, "gamma_initializer": {"class_name": "Ones", "config": {}}, "moving_mean_initializer": {"class_name": "Zeros", "config": {}}, "moving_variance_initializer": {"class_name": "Ones", "config": {}}, "beta_regularizer": null, "gamma_regularizer": null, "beta_constraint": null, "gamma_constraint": null, "freeze": true}, "inbound_nodes": [[["res4b13_branch2b2", 0, 0, {}]]]}, {"name": "res4b13_branch2b_relu2", "class_name": "Activation", "config": {"name": "res4b13_branch2b_relu2", "trainable": true, "activation": "relu"}, "inbound_nodes": [[["bn4b13_branch2b2", 0, 0, {}]]]}, {"name": "res4b13_branch2c2", "class_name": "Conv2D", "config": {"name": "res4b13_branch2c2", "trainable": true, "filters": 1024, "kernel_size": [1, 1], "strides": [1, 1], "padding": "valid", "data_format": "channels_last", "dilation_rate": [1, 1], "activation": "linear", "use_bias": false, "kernel_initializer": {"class_name": "VarianceScaling", "config": {"scale": 2.0, "mode": "fan_in", "distribution": "normal", "seed": null}}, "bias_initializer": {"class_name": "Zeros", "config": {}}, "kernel_regularizer": null, "bias_regularizer": null, "activity_regularizer": null, "kernel_constraint": null, "bias_constraint": null}, "inbound_nodes": [[["res4b13_branch2b_relu2", 0, 0, {}]]]}, {"name": "bn4b13_branch2c2", "class_name": "BatchNormalization", "config": {"name": "bn4b13_branch2c2", "trainable": false, "axis": 3, "momentum": 0.99, "epsilon": 1e-05, "center": true, "scale": true, "beta_initializer": {"class_name": "Zeros", "config": {}}, "gamma_initializer": {"class_name": "Ones", "config": {}}, "moving_mean_initializer": {"class_name": "Zeros", "config": {}}, "moving_variance_initializer": {"class_name": "Ones", "config": {}}, "beta_regularizer": null, "gamma_regularizer": null, "beta_constraint": null, "gamma_constraint": null, "freeze": true}, "inbound_nodes": [[["res4b13_branch2c2", 0, 0, {}]]]}, {"name": "res4b132", "class_name": "Add", "config": {"name": "res4b132", "trainable": true}, "inbound_nodes": [[["bn4b13_branch2c2", 0, 0, {}], ["res4b12_relu2", 0, 0, {}]]]}, {"name": "res4b13_relu2", "class_name": "Activation", "config": {"name": "res4b13_relu2", "trainable": true, "activation": "relu"}, "inbound_nodes": [[["res4b132", 0, 0, {}]]]}, {"name": "res4b14_branch2a2", "class_name": "Conv2D", "config": {"name": "res4b14_branch2a2", "trainable": true, "filters": 256, "kernel_size": [1, 1], "strides": [1, 1], "padding": "valid", "data_format": "channels_last", "dilation_rate": [1, 1], "activation": "linear", "use_bias": false, "kernel_initializer": {"class_name": "VarianceScaling", "config": {"scale": 2.0, "mode": "fan_in", "distribution": "normal", "seed": null}}, "bias_initializer": {"class_name": "Zeros", "config": {}}, "kernel_regularizer": null, "bias_regularizer": null, "activity_regularizer": null, "kernel_constraint": null, "bias_constraint": null}, "inbound_nodes": [[["res4b13_relu2", 0, 0, {}]]]}, {"name": "bn4b14_branch2a2", "class_name": "BatchNormalization", "config": {"name": "bn4b14_branch2a2", "trainable": false, "axis": 3, "momentum": 0.99, "epsilon": 1e-05, "center": true, "scale": true, "beta_initializer": {"class_name": "Zeros", "config": {}}, "gamma_initializer": {"class_name": "Ones", "config": {}}, "moving_mean_initializer": {"class_name": "Zeros", "config": {}}, "moving_variance_initializer": {"class_name": "Ones", "config": {}}, "beta_regularizer": null, "gamma_regularizer": null, "beta_constraint": null, "gamma_constraint": null, "freeze": true}, "inbound_nodes": [[["res4b14_branch2a2", 0, 0, {}]]]}, {"name": "res4b14_branch2a_relu2", "class_name": "Activation", "config": {"name": "res4b14_branch2a_relu2", "trainable": true, "activation": "relu"}, "inbound_nodes": [[["bn4b14_branch2a2", 0, 0, {}]]]}, {"name": "padding4b14_branch2b2", "class_name": "ZeroPadding2D", "config": {"name": "padding4b14_branch2b2", "trainable": true, "padding": [[1, 1], [1, 1]], "data_format": "channels_last"}, "inbound_nodes": [[["res4b14_branch2a_relu2", 0, 0, {}]]]}, {"name": "res4b14_branch2b2", "class_name": "Conv2D", "config": {"name": "res4b14_branch2b2", "trainable": true, "filters": 256, "kernel_size": [3, 3], "strides": [1, 1], "padding": "valid", "data_format": "channels_last", "dilation_rate": [1, 1], "activation": "linear", "use_bias": false, "kernel_initializer": {"class_name": "VarianceScaling", "config": {"scale": 2.0, "mode": "fan_in", "distribution": "normal", "seed": null}}, "bias_initializer": {"class_name": "Zeros", "config": {}}, "kernel_regularizer": null, "bias_regularizer": null, "activity_regularizer": null, "kernel_constraint": null, "bias_constraint": null}, "inbound_nodes": [[["padding4b14_branch2b2", 0, 0, {}]]]}, {"name": "bn4b14_branch2b2", "class_name": "BatchNormalization", "config": {"name": "bn4b14_branch2b2", "trainable": false, "axis": 3, "momentum": 0.99, "epsilon": 1e-05, "center": true, "scale": true, "beta_initializer": {"class_name": "Zeros", "config": {}}, "gamma_initializer": {"class_name": "Ones", "config": {}}, "moving_mean_initializer": {"class_name": "Zeros", "config": {}}, "moving_variance_initializer": {"class_name": "Ones", "config": {}}, "beta_regularizer": null, "gamma_regularizer": null, "beta_constraint": null, "gamma_constraint": null, "freeze": true}, "inbound_nodes": [[["res4b14_branch2b2", 0, 0, {}]]]}, {"name": "res4b14_branch2b_relu2", "class_name": "Activation", "config": {"name": "res4b14_branch2b_relu2", "trainable": true, "activation": "relu"}, "inbound_nodes": [[["bn4b14_branch2b2", 0, 0, {}]]]}, {"name": "res4b14_branch2c2", "class_name": "Conv2D", "config": {"name": "res4b14_branch2c2", "trainable": true, "filters": 1024, "kernel_size": [1, 1], "strides": [1, 1], "padding": "valid", "data_format": "channels_last", "dilation_rate": [1, 1], "activation": "linear", "use_bias": false, "kernel_initializer": {"class_name": "VarianceScaling", "config": {"scale": 2.0, "mode": "fan_in", "distribution": "normal", "seed": null}}, "bias_initializer": {"class_name": "Zeros", "config": {}}, "kernel_regularizer": null, "bias_regularizer": null, "activity_regularizer": null, "kernel_constraint": null, "bias_constraint": null}, "inbound_nodes": [[["res4b14_branch2b_relu2", 0, 0, {}]]]}, {"name": "bn4b14_branch2c2", "class_name": "BatchNormalization", "config": {"name": "bn4b14_branch2c2", "trainable": false, "axis": 3, "momentum": 0.99, "epsilon": 1e-05, "center": true, "scale": true, "beta_initializer": {"class_name": "Zeros", "config": {}}, "gamma_initializer": {"class_name": "Ones", "config": {}}, "moving_mean_initializer": {"class_name": "Zeros", "config": {}}, "moving_variance_initializer": {"class_name": "Ones", "config": {}}, "beta_regularizer": null, "gamma_regularizer": null, "beta_constraint": null, "gamma_constraint": null, "freeze": true}, "inbound_nodes": [[["res4b14_branch2c2", 0, 0, {}]]]}, {"name": "res4b142", "class_name": "Add", "config": {"name": "res4b142", "trainable": true}, "inbound_nodes": [[["bn4b14_branch2c2", 0, 0, {}], ["res4b13_relu2", 0, 0, {}]]]}, {"name": "res4b14_relu2", "class_name": "Activation", "config": {"name": "res4b14_relu2", "trainable": true, "activation": "relu"}, "inbound_nodes": [[["res4b142", 0, 0, {}]]]}, {"name": "res4b15_branch2a2", "class_name": "Conv2D", "config": {"name": "res4b15_branch2a2", "trainable": true, "filters": 256, "kernel_size": [1, 1], "strides": [1, 1], "padding": "valid", "data_format": "channels_last", "dilation_rate": [1, 1], "activation": "linear", "use_bias": false, "kernel_initializer": {"class_name": "VarianceScaling", "config": {"scale": 2.0, "mode": "fan_in", "distribution": "normal", "seed": null}}, "bias_initializer": {"class_name": "Zeros", "config": {}}, "kernel_regularizer": null, "bias_regularizer": null, "activity_regularizer": null, "kernel_constraint": null, "bias_constraint": null}, "inbound_nodes": [[["res4b14_relu2", 0, 0, {}]]]}, {"name": "bn4b15_branch2a2", "class_name": "BatchNormalization", "config": {"name": "bn4b15_branch2a2", "trainable": false, "axis": 3, "momentum": 0.99, "epsilon": 1e-05, "center": true, "scale": true, "beta_initializer": {"class_name": "Zeros", "config": {}}, "gamma_initializer": {"class_name": "Ones", "config": {}}, "moving_mean_initializer": {"class_name": "Zeros", "config": {}}, "moving_variance_initializer": {"class_name": "Ones", "config": {}}, "beta_regularizer": null, "gamma_regularizer": null, "beta_constraint": null, "gamma_constraint": null, "freeze": true}, "inbound_nodes": [[["res4b15_branch2a2", 0, 0, {}]]]}, {"name": "res4b15_branch2a_relu2", "class_name": "Activation", "config": {"name": "res4b15_branch2a_relu2", "trainable": true, "activation": "relu"}, "inbound_nodes": [[["bn4b15_branch2a2", 0, 0, {}]]]}, {"name": "padding4b15_branch2b2", "class_name": "ZeroPadding2D", "config": {"name": "padding4b15_branch2b2", "trainable": true, "padding": [[1, 1], [1, 1]], "data_format": "channels_last"}, "inbound_nodes": [[["res4b15_branch2a_relu2", 0, 0, {}]]]}, {"name": "res4b15_branch2b2", "class_name": "Conv2D", "config": {"name": "res4b15_branch2b2", "trainable": true, "filters": 256, "kernel_size": [3, 3], "strides": [1, 1], "padding": "valid", "data_format": "channels_last", "dilation_rate": [1, 1], "activation": "linear", "use_bias": false, "kernel_initializer": {"class_name": "VarianceScaling", "config": {"scale": 2.0, "mode": "fan_in", "distribution": "normal", "seed": null}}, "bias_initializer": {"class_name": "Zeros", "config": {}}, "kernel_regularizer": null, "bias_regularizer": null, "activity_regularizer": null, "kernel_constraint": null, "bias_constraint": null}, "inbound_nodes": [[["padding4b15_branch2b2", 0, 0, {}]]]}, {"name": "bn4b15_branch2b2", "class_name": "BatchNormalization", "config": {"name": "bn4b15_branch2b2", "trainable": false, "axis": 3, "momentum": 0.99, "epsilon": 1e-05, "center": true, "scale": true, "beta_initializer": {"class_name": "Zeros", "config": {}}, "gamma_initializer": {"class_name": "Ones", "config": {}}, "moving_mean_initializer": {"class_name": "Zeros", "config": {}}, "moving_variance_initializer": {"class_name": "Ones", "config": {}}, "beta_regularizer": null, "gamma_regularizer": null, "beta_constraint": null, "gamma_constraint": null, "freeze": true}, "inbound_nodes": [[["res4b15_branch2b2", 0, 0, {}]]]}, {"name": "res4b15_branch2b_relu2", "class_name": "Activation", "config": {"name": "res4b15_branch2b_relu2", "trainable": true, "activation": "relu"}, "inbound_nodes": [[["bn4b15_branch2b2", 0, 0, {}]]]}, {"name": "res4b15_branch2c2", "class_name": "Conv2D", "config": {"name": "res4b15_branch2c2", "trainable": true, "filters": 1024, "kernel_size": [1, 1], "strides": [1, 1], "padding": "valid", "data_format": "channels_last", "dilation_rate": [1, 1], "activation": "linear", "use_bias": false, "kernel_initializer": {"class_name": "VarianceScaling", "config": {"scale": 2.0, "mode": "fan_in", "distribution": "normal", "seed": null}}, "bias_initializer": {"class_name": "Zeros", "config": {}}, "kernel_regularizer": null, "bias_regularizer": null, "activity_regularizer": null, "kernel_constraint": null, "bias_constraint": null}, "inbound_nodes": [[["res4b15_branch2b_relu2", 0, 0, {}]]]}, {"name": "bn4b15_branch2c2", "class_name": "BatchNormalization", "config": {"name": "bn4b15_branch2c2", "trainable": false, "axis": 3, "momentum": 0.99, "epsilon": 1e-05, "center": true, "scale": true, "beta_initializer": {"class_name": "Zeros", "config": {}}, "gamma_initializer": {"class_name": "Ones", "config": {}}, "moving_mean_initializer": {"class_name": "Zeros", "config": {}}, "moving_variance_initializer": {"class_name": "Ones", "config": {}}, "beta_regularizer": null, "gamma_regularizer": null, "beta_constraint": null, "gamma_constraint": null, "freeze": true}, "inbound_nodes": [[["res4b15_branch2c2", 0, 0, {}]]]}, {"name": "res4b152", "class_name": "Add", "config": {"name": "res4b152", "trainable": true}, "inbound_nodes": [[["bn4b15_branch2c2", 0, 0, {}], ["res4b14_relu2", 0, 0, {}]]]}, {"name": "res4b15_relu2", "class_name": "Activation", "config": {"name": "res4b15_relu2", "trainable": true, "activation": "relu"}, "inbound_nodes": [[["res4b152", 0, 0, {}]]]}, {"name": "res4b16_branch2a2", "class_name": "Conv2D", "config": {"name": "res4b16_branch2a2", "trainable": true, "filters": 256, "kernel_size": [1, 1], "strides": [1, 1], "padding": "valid", "data_format": "channels_last", "dilation_rate": [1, 1], "activation": "linear", "use_bias": false, "kernel_initializer": {"class_name": "VarianceScaling", "config": {"scale": 2.0, "mode": "fan_in", "distribution": "normal", "seed": null}}, "bias_initializer": {"class_name": "Zeros", "config": {}}, "kernel_regularizer": null, "bias_regularizer": null, "activity_regularizer": null, "kernel_constraint": null, "bias_constraint": null}, "inbound_nodes": [[["res4b15_relu2", 0, 0, {}]]]}, {"name": "bn4b16_branch2a2", "class_name": "BatchNormalization", "config": {"name": "bn4b16_branch2a2", "trainable": false, "axis": 3, "momentum": 0.99, "epsilon": 1e-05, "center": true, "scale": true, "beta_initializer": {"class_name": "Zeros", "config": {}}, "gamma_initializer": {"class_name": "Ones", "config": {}}, "moving_mean_initializer": {"class_name": "Zeros", "config": {}}, "moving_variance_initializer": {"class_name": "Ones", "config": {}}, "beta_regularizer": null, "gamma_regularizer": null, "beta_constraint": null, "gamma_constraint": null, "freeze": true}, "inbound_nodes": [[["res4b16_branch2a2", 0, 0, {}]]]}, {"name": "res4b16_branch2a_relu2", "class_name": "Activation", "config": {"name": "res4b16_branch2a_relu2", "trainable": true, "activation": "relu"}, "inbound_nodes": [[["bn4b16_branch2a2", 0, 0, {}]]]}, {"name": "padding4b16_branch2b2", "class_name": "ZeroPadding2D", "config": {"name": "padding4b16_branch2b2", "trainable": true, "padding": [[1, 1], [1, 1]], "data_format": "channels_last"}, "inbound_nodes": [[["res4b16_branch2a_relu2", 0, 0, {}]]]}, {"name": "res4b16_branch2b2", "class_name": "Conv2D", "config": {"name": "res4b16_branch2b2", "trainable": true, "filters": 256, "kernel_size": [3, 3], "strides": [1, 1], "padding": "valid", "data_format": "channels_last", "dilation_rate": [1, 1], "activation": "linear", "use_bias": false, "kernel_initializer": {"class_name": "VarianceScaling", "config": {"scale": 2.0, "mode": "fan_in", "distribution": "normal", "seed": null}}, "bias_initializer": {"class_name": "Zeros", "config": {}}, "kernel_regularizer": null, "bias_regularizer": null, "activity_regularizer": null, "kernel_constraint": null, "bias_constraint": null}, "inbound_nodes": [[["padding4b16_branch2b2", 0, 0, {}]]]}, {"name": "bn4b16_branch2b2", "class_name": "BatchNormalization", "config": {"name": "bn4b16_branch2b2", "trainable": false, "axis": 3, "momentum": 0.99, "epsilon": 1e-05, "center": true, "scale": true, "beta_initializer": {"class_name": "Zeros", "config": {}}, "gamma_initializer": {"class_name": "Ones", "config": {}}, "moving_mean_initializer": {"class_name": "Zeros", "config": {}}, "moving_variance_initializer": {"class_name": "Ones", "config": {}}, "beta_regularizer": null, "gamma_regularizer": null, "beta_constraint": null, "gamma_constraint": null, "freeze": true}, "inbound_nodes": [[["res4b16_branch2b2", 0, 0, {}]]]}, {"name": "res4b16_branch2b_relu2", "class_name": "Activation", "config": {"name": "res4b16_branch2b_relu2", "trainable": true, "activation": "relu"}, "inbound_nodes": [[["bn4b16_branch2b2", 0, 0, {}]]]}, {"name": "res4b16_branch2c2", "class_name": "Conv2D", "config": {"name": "res4b16_branch2c2", "trainable": true, "filters": 1024, "kernel_size": [1, 1], "strides": [1, 1], "padding": "valid", "data_format": "channels_last", "dilation_rate": [1, 1], "activation": "linear", "use_bias": false, "kernel_initializer": {"class_name": "VarianceScaling", "config": {"scale": 2.0, "mode": "fan_in", "distribution": "normal", "seed": null}}, "bias_initializer": {"class_name": "Zeros", "config": {}}, "kernel_regularizer": null, "bias_regularizer": null, "activity_regularizer": null, "kernel_constraint": null, "bias_constraint": null}, "inbound_nodes": [[["res4b16_branch2b_relu2", 0, 0, {}]]]}, {"name": "bn4b16_branch2c2", "class_name": "BatchNormalization", "config": {"name": "bn4b16_branch2c2", "trainable": false, "axis": 3, "momentum": 0.99, "epsilon": 1e-05, "center": true, "scale": true, "beta_initializer": {"class_name": "Zeros", "config": {}}, "gamma_initializer": {"class_name": "Ones", "config": {}}, "moving_mean_initializer": {"class_name": "Zeros", "config": {}}, "moving_variance_initializer": {"class_name": "Ones", "config": {}}, "beta_regularizer": null, "gamma_regularizer": null, "beta_constraint": null, "gamma_constraint": null, "freeze": true}, "inbound_nodes": [[["res4b16_branch2c2", 0, 0, {}]]]}, {"name": "res4b162", "class_name": "Add", "config": {"name": "res4b162", "trainable": true}, "inbound_nodes": [[["bn4b16_branch2c2", 0, 0, {}], ["res4b15_relu2", 0, 0, {}]]]}, {"name": "res4b16_relu2", "class_name": "Activation", "config": {"name": "res4b16_relu2", "trainable": true, "activation": "relu"}, "inbound_nodes": [[["res4b162", 0, 0, {}]]]}, {"name": "res4b17_branch2a2", "class_name": "Conv2D", "config": {"name": "res4b17_branch2a2", "trainable": true, "filters": 256, "kernel_size": [1, 1], "strides": [1, 1], "padding": "valid", "data_format": "channels_last", "dilation_rate": [1, 1], "activation": "linear", "use_bias": false, "kernel_initializer": {"class_name": "VarianceScaling", "config": {"scale": 2.0, "mode": "fan_in", "distribution": "normal", "seed": null}}, "bias_initializer": {"class_name": "Zeros", "config": {}}, "kernel_regularizer": null, "bias_regularizer": null, "activity_regularizer": null, "kernel_constraint": null, "bias_constraint": null}, "inbound_nodes": [[["res4b16_relu2", 0, 0, {}]]]}, {"name": "bn4b17_branch2a2", "class_name": "BatchNormalization", "config": {"name": "bn4b17_branch2a2", "trainable": false, "axis": 3, "momentum": 0.99, "epsilon": 1e-05, "center": true, "scale": true, "beta_initializer": {"class_name": "Zeros", "config": {}}, "gamma_initializer": {"class_name": "Ones", "config": {}}, "moving_mean_initializer": {"class_name": "Zeros", "config": {}}, "moving_variance_initializer": {"class_name": "Ones", "config": {}}, "beta_regularizer": null, "gamma_regularizer": null, "beta_constraint": null, "gamma_constraint": null, "freeze": true}, "inbound_nodes": [[["res4b17_branch2a2", 0, 0, {}]]]}, {"name": "res4b17_branch2a_relu2", "class_name": "Activation", "config": {"name": "res4b17_branch2a_relu2", "trainable": true, "activation": "relu"}, "inbound_nodes": [[["bn4b17_branch2a2", 0, 0, {}]]]}, {"name": "padding4b17_branch2b2", "class_name": "ZeroPadding2D", "config": {"name": "padding4b17_branch2b2", "trainable": true, "padding": [[1, 1], [1, 1]], "data_format": "channels_last"}, "inbound_nodes": [[["res4b17_branch2a_relu2", 0, 0, {}]]]}, {"name": "res4b17_branch2b2", "class_name": "Conv2D", "config": {"name": "res4b17_branch2b2", "trainable": true, "filters": 256, "kernel_size": [3, 3], "strides": [1, 1], "padding": "valid", "data_format": "channels_last", "dilation_rate": [1, 1], "activation": "linear", "use_bias": false, "kernel_initializer": {"class_name": "VarianceScaling", "config": {"scale": 2.0, "mode": "fan_in", "distribution": "normal", "seed": null}}, "bias_initializer": {"class_name": "Zeros", "config": {}}, "kernel_regularizer": null, "bias_regularizer": null, "activity_regularizer": null, "kernel_constraint": null, "bias_constraint": null}, "inbound_nodes": [[["padding4b17_branch2b2", 0, 0, {}]]]}, {"name": "bn4b17_branch2b2", "class_name": "BatchNormalization", "config": {"name": "bn4b17_branch2b2", "trainable": false, "axis": 3, "momentum": 0.99, "epsilon": 1e-05, "center": true, "scale": true, "beta_initializer": {"class_name": "Zeros", "config": {}}, "gamma_initializer": {"class_name": "Ones", "config": {}}, "moving_mean_initializer": {"class_name": "Zeros", "config": {}}, "moving_variance_initializer": {"class_name": "Ones", "config": {}}, "beta_regularizer": null, "gamma_regularizer": null, "beta_constraint": null, "gamma_constraint": null, "freeze": true}, "inbound_nodes": [[["res4b17_branch2b2", 0, 0, {}]]]}, {"name": "res4b17_branch2b_relu2", "class_name": "Activation", "config": {"name": "res4b17_branch2b_relu2", "trainable": true, "activation": "relu"}, "inbound_nodes": [[["bn4b17_branch2b2", 0, 0, {}]]]}, {"name": "res4b17_branch2c2", "class_name": "Conv2D", "config": {"name": "res4b17_branch2c2", "trainable": true, "filters": 1024, "kernel_size": [1, 1], "strides": [1, 1], "padding": "valid", "data_format": "channels_last", "dilation_rate": [1, 1], "activation": "linear", "use_bias": false, "kernel_initializer": {"class_name": "VarianceScaling", "config": {"scale": 2.0, "mode": "fan_in", "distribution": "normal", "seed": null}}, "bias_initializer": {"class_name": "Zeros", "config": {}}, "kernel_regularizer": null, "bias_regularizer": null, "activity_regularizer": null, "kernel_constraint": null, "bias_constraint": null}, "inbound_nodes": [[["res4b17_branch2b_relu2", 0, 0, {}]]]}, {"name": "bn4b17_branch2c2", "class_name": "BatchNormalization", "config": {"name": "bn4b17_branch2c2", "trainable": false, "axis": 3, "momentum": 0.99, "epsilon": 1e-05, "center": true, "scale": true, "beta_initializer": {"class_name": "Zeros", "config": {}}, "gamma_initializer": {"class_name": "Ones", "config": {}}, "moving_mean_initializer": {"class_name": "Zeros", "config": {}}, "moving_variance_initializer": {"class_name": "Ones", "config": {}}, "beta_regularizer": null, "gamma_regularizer": null, "beta_constraint": null, "gamma_constraint": null, "freeze": true}, "inbound_nodes": [[["res4b17_branch2c2", 0, 0, {}]]]}, {"name": "res4b172", "class_name": "Add", "config": {"name": "res4b172", "trainable": true}, "inbound_nodes": [[["bn4b17_branch2c2", 0, 0, {}], ["res4b16_relu2", 0, 0, {}]]]}, {"name": "res4b17_relu2", "class_name": "Activation", "config": {"name": "res4b17_relu2", "trainable": true, "activation": "relu"}, "inbound_nodes": [[["res4b172", 0, 0, {}]]]}, {"name": "res4b18_branch2a2", "class_name": "Conv2D", "config": {"name": "res4b18_branch2a2", "trainable": true, "filters": 256, "kernel_size": [1, 1], "strides": [1, 1], "padding": "valid", "data_format": "channels_last", "dilation_rate": [1, 1], "activation": "linear", "use_bias": false, "kernel_initializer": {"class_name": "VarianceScaling", "config": {"scale": 2.0, "mode": "fan_in", "distribution": "normal", "seed": null}}, "bias_initializer": {"class_name": "Zeros", "config": {}}, "kernel_regularizer": null, "bias_regularizer": null, "activity_regularizer": null, "kernel_constraint": null, "bias_constraint": null}, "inbound_nodes": [[["res4b17_relu2", 0, 0, {}]]]}, {"name": "bn4b18_branch2a2", "class_name": "BatchNormalization", "config": {"name": "bn4b18_branch2a2", "trainable": false, "axis": 3, "momentum": 0.99, "epsilon": 1e-05, "center": true, "scale": true, "beta_initializer": {"class_name": "Zeros", "config": {}}, "gamma_initializer": {"class_name": "Ones", "config": {}}, "moving_mean_initializer": …
n_initializer": {"class_name": "Zeros", "config": {}}, "moving_variance_initializer": {"class_name": "Ones", "config": {}}, "beta_regularizer": null, "gamma_regularizer": null, "beta_constraint": null, "gamma_constraint": null, "freeze": true}, "inbound_nodes": [[["res4b32_branch2a2", 0, 0, {}]]]}, {"name": "res4b32_branch2a_relu2", "class_name": "Activation", "config": {"name": "res4b32_branch2a_relu2", "trainable": true, "activation": "relu"}, "inbound_nodes": [[["bn4b32_branch2a2", 0, 0, {}]]]}, {"name": "padding4b32_branch2b2", "class_name": "ZeroPadding2D", "config": {"name": "padding4b32_branch2b2", "trainable": true, "padding": [[1, 1], [1, 1]], "data_format": "channels_last"}, "inbound_nodes": [[["res4b32_branch2a_relu2", 0, 0, {}]]]}, {"name": "res4b32_branch2b2", "class_name": "Conv2D", "config": {"name": "res4b32_branch2b2", "trainable": true, "filters": 256, "kernel_size": [3, 3], "strides": [1, 1], "padding": "valid", "data_format": "channels_last", "dilation_rate": [1, 1], "activation": "linear", "use_bias": false, "kernel_initializer": {"class_name": "VarianceScaling", "config": {"scale": 2.0, "mode": "fan_in", "distribution": "normal", "seed": null}}, "bias_initializer": {"class_name": "Zeros", "config": {}}, "kernel_regularizer": null, "bias_regularizer": null, "activity_regularizer": null, "kernel_constraint": null, "bias_constraint": null}, "inbound_nodes": [[["padding4b32_branch2b2", 0, 0, {}]]]}, {"name": "bn4b32_branch2b2", "class_name": "BatchNormalization", "config": {"name": "bn4b32_branch2b2", "trainable": false, "axis": 3, "momentum": 0.99, "epsilon": 1e-05, "center": true, "scale": true, "beta_initializer": {"class_name": "Zeros", "config": {}}, "gamma_initializer": {"class_name": "Ones", "config": {}}, "moving_mean_initializer": {"class_name": "Zeros", "config": {}}, "moving_variance_initializer": {"class_name": "Ones", "config": {}}, "beta_regularizer": null, "gamma_regularizer": null, "beta_constraint": null, "gamma_constraint": null, "freeze": true}, "inbound_nodes": [[["res4b32_branch2b2", 0, 0, {}]]]}, {"name": "res4b32_branch2b_relu2", "class_name": "Activation", "config": {"name": "res4b32_branch2b_relu2", "trainable": true, "activation": "relu"}, "inbound_nodes": [[["bn4b32_branch2b2", 0, 0, {}]]]}, {"name": "res4b32_branch2c2", "class_name": "Conv2D", "config": {"name": "res4b32_branch2c2", "trainable": true, "filters": 1024, "kernel_size": [1, 1], "strides": [1, 1], "padding": "valid", "data_format": "channels_last", "dilation_rate": [1, 1], "activation": "linear", "use_bias": false, "kernel_initializer": {"class_name": "VarianceScaling", "config": {"scale": 2.0, "mode": "fan_in", "distribution": "normal", "seed": null}}, "bias_initializer": {"class_name": "Zeros", "config": {}}, "kernel_regularizer": null, "bias_regularizer": null, "activity_regularizer": null, "kernel_constraint": null, "bias_constraint": null}, "inbound_nodes": [[["res4b32_branch2b_relu2", 0, 0, {}]]]}, {"name": "bn4b32_branch2c2", "class_name": "BatchNormalization", "config": {"name": "bn4b32_branch2c2", "trainable": false, "axis": 3, "momentum": 0.99, "epsilon": 1e-05, "center": true, "scale": true, "beta_initializer": {"class_name": "Zeros", "config": {}}, "gamma_initializer": {"class_name": "Ones", "config": {}}, "moving_mean_initializer": {"class_name": "Zeros", "config": {}}, "moving_variance_initializer": {"class_name": "Ones", "config": {}}, "beta_regularizer": null, "gamma_regularizer": null, "beta_constraint": null, "gamma_constraint": null, "freeze": true}, "inbound_nodes": [[["res4b32_branch2c2", 0, 0, {}]]]}, {"name": "res4b3222", "class_name": "Add", "config": {"name": "res4b3222", "trainable": true}, "inbound_nodes": [[["bn4b32_branch2c2", 0, 0, {}], ["res4b31_relu2", 0, 0, {}]]]}, {"name": "res4b32_relu2", "class_name": "Activation", "config": {"name": "res4b32_relu2", "trainable": true, "activation": "relu"}, "inbound_nodes": [[["res4b3222", 0, 0, {}]]]}, {"name": "res4b33_branch2a2", "class_name": "Conv2D", "config": {"name": "res4b33_branch2a2", "trainable": true, "filters": 256, "kernel_size": [1, 1], "strides": [1, 1], "padding": "valid", "data_format": "channels_last", "dilation_rate": [1, 1], "activation": "linear", "use_bias": false, "kernel_initializer": {"class_name": "VarianceScaling", "config": {"scale": 2.0, "mode": "fan_in", "distribution": "normal", "seed": null}}, "bias_initializer": {"class_name": "Zeros", "config": {}}, "kernel_regularizer": null, "bias_regularizer": null, "activity_regularizer": null, "kernel_constraint": null, "bias_constraint": null}, "inbound_nodes": [[["res4b32_relu2", 0, 0, {}]]]}, {"name": "bn4b33_branch2a2", "class_name": "BatchNormalization", "config": {"name": "bn4b33_branch2a2", "trainable": false, "axis": 3, "momentum": 0.99, "epsilon": 1e-05, "center": true, "scale": true, "beta_initializer": {"class_name": "Zeros", "config": {}}, "gamma_initializer": {"class_name": "Ones", "config": {}}, "moving_mean_initializer": {"class_name": "Zeros", "config": {}}, "moving_variance_initializer": {"class_name": "Ones", "config": {}}, "beta_regularizer": null, "gamma_regularizer": null, "beta_constraint": null, "gamma_constraint": null, "freeze": true}, "inbound_nodes": [[["res4b33_branch2a2", 0, 0, {}]]]}, {"name": "res4b33_branch2a_relu2", "class_name": "Activation", "config": {"name": "res4b33_branch2a_relu2", "trainable": true, "activation": "relu"}, "inbound_nodes": [[["bn4b33_branch2a2", 0, 0, {}]]]}, {"name": "padding4b33_branch2b2", "class_name": "ZeroPadding2D", "config": {"name": "padding4b33_branch2b2", "trainable": true, "padding": [[1, 1], [1, 1]], "data_format": "channels_last"}, "inbound_nodes": [[["res4b33_branch2a_relu2", 0, 0, {}]]]}, {"name": "res4b33_branch2b2", "class_name": "Conv2D", "config": {"name": "res4b33_branch2b2", "trainable": true, "filters": 256, "kernel_size": [3, 3], "strides": [1, 1], "padding": "valid", "data_format": "channels_last", "dilation_rate": [1, 1], "activation": "linear", "use_bias": false, "kernel_initializer": {"class_name": "VarianceScaling", "config": {"scale": 2.0, "mode": "fan_in", "distribution": "normal", "seed": null}}, "bias_initializer": {"class_name": "Zeros", "config": {}}, "kernel_regularizer": null, "bias_regularizer": null, "activity_regularizer": null, "kernel_constraint": null, "bias_constraint": null}, "inbound_nodes": [[["padding4b33_branch2b2", 0, 0, {}]]]}, {"name": "bn4b33_branch2b2", "class_name": "BatchNormalization", "config": {"name": "bn4b33_branch2b2", "trainable": false, "axis": 3, "momentum": 0.99, "epsilon": 1e-05, "center": true, "scale": true, "beta_initializer": {"class_name": "Zeros", "config": {}}, "gamma_initializer": {"class_name": "Ones", "config": {}}, "moving_mean_initializer": {"class_name": "Zeros", "config": {}}, "moving_variance_initializer": {"class_name": "Ones", "config": {}}, "beta_regularizer": null, "gamma_regularizer": null, "beta_constraint": null, "gamma_constraint": null, "freeze": true}, "inbound_nodes": [[["res4b33_branch2b2", 0, 0, {}]]]}, {"name": "res4b33_branch2b_relu2", "class_name": "Activation", "config": {"name": "res4b33_branch2b_relu2", "trainable": true, "activation": "relu"}, "inbound_nodes": [[["bn4b33_branch2b2", 0, 0, {}]]]}, {"name": "res4b33_branch2c2", "class_name": "Conv2D", "config": {"name": "res4b33_branch2c2", "trainable": true, "filters": 1024, "kernel_size": [1, 1], "strides": [1, 1], "padding": "valid", "data_format": "channels_last", "dilation_rate": [1, 1], "activation": "linear", "use_bias": false, "kernel_initializer": {"class_name": "VarianceScaling", "config": {"scale": 2.0, "mode": "fan_in", "distribution": "normal", "seed": null}}, "bias_initializer": {"class_name": "Zeros", "config": {}}, "kernel_regularizer": null, "bias_regularizer": null, "activity_regularizer": null, "kernel_constraint": null, "bias_constraint": null}, "inbound_nodes": [[["res4b33_branch2b_relu2", 0, 0, {}]]]}, {"name": "bn4b33_branch2c2", "class_name": "BatchNormalization", "config": {"name": "bn4b33_branch2c2", "trainable": false, "axis": 3, "momentum": 0.99, "epsilon": 1e-05, "center": true, "scale": true, "beta_initializer": {"class_name": "Zeros", "config": {}}, "gamma_initializer": {"class_name": "Ones", "config": {}}, "moving_mean_initializer": {"class_name": "Zeros", "config": {}}, "moving_variance_initializer": {"class_name": "Ones", "config": {}}, "beta_regularizer": null, "gamma_regularizer": null, "beta_constraint": null, "gamma_constraint": null, "freeze": true}, "inbound_nodes": [[["res4b33_branch2c2", 0, 0, {}]]]}, {"name": "res4b332", "class_name": "Add", "config": {"name": "res4b332", "trainable": true}, "inbound_nodes": [[["bn4b33_branch2c2", 0, 0, {}], ["res4b32_relu2", 0, 0, {}]]]}, {"name": "res4b33_relu2", "class_name": "Activation", "config": {"name": "res4b33_relu2", "trainable": true, "activation": "relu"}, "inbound_nodes": [[["res4b332", 0, 0, {}]]]}, {"name": "res4b34_branch2a2", "class_name": "Conv2D", "config": {"name": "res4b34_branch2a2", "trainable": true, "filters": 256, "kernel_size": [1, 1], "strides": [1, 1], "padding": "valid", "data_format": "channels_last", "dilation_rate": [1, 1], "activation": "linear", "use_bias": false, "kernel_initializer": {"class_name": "VarianceScaling", "config": {"scale": 2.0, "mode": "fan_in", "distribution": "normal", "seed": null}}, "bias_initializer": {"class_name": "Zeros", "config": {}}, "kernel_regularizer": null, "bias_regularizer": null, "activity_regularizer": null, "kernel_constraint": null, "bias_constraint": null}, "inbound_nodes": [[["res4b33_relu2", 0, 0, {}]]]}, {"name": "bn4b34_branch2a2", "class_name": "BatchNormalization", "config": {"name": "bn4b34_branch2a2", "trainable": false, "axis": 3, "momentum": 0.99, "epsilon": 1e-05, "center": true, "scale": true, "beta_initializer": {"class_name": "Zeros", "config": {}}, "gamma_initializer": {"class_name": "Ones", "config": {}}, "moving_mean_initializer": {"class_name": "Zeros", "config": {}}, "moving_variance_initializer": {"class_name": "Ones", "config": {}}, "beta_regularizer": null, "gamma_regularizer": null, "beta_constraint": null, "gamma_constraint": null, "freeze": true}, "inbound_nodes": [[["res4b34_branch2a2", 0, 0, {}]]]}, {"name": "res4b34_branch2a_relu2", "class_name": "Activation", "config": {"name": "res4b34_branch2a_relu2", "trainable": true, "activation": "relu"}, "inbound_nodes": [[["bn4b34_branch2a2", 0, 0, {}]]]}, {"name": "padding4b34_branch2b2", "class_name": "ZeroPadding2D", "config": {"name": "padding4b34_branch2b2", "trainable": true, "padding": [[1, 1], [1, 1]], "data_format": "channels_last"}, "inbound_nodes": [[["res4b34_branch2a_relu2", 0, 0, {}]]]}, {"name": "res4b34_branch2b2", "class_name": "Conv2D", "config": {"name": "res4b34_branch2b2", "trainable": true, "filters": 256, "kernel_size": [3, 3], "strides": [1, 1], "padding": "valid", "data_format": "channels_last", "dilation_rate": [1, 1], "activation": "linear", "use_bias": false, "kernel_initializer": {"class_name": "VarianceScaling", "config": {"scale": 2.0, "mode": "fan_in", "distribution": "normal", "seed": null}}, "bias_initializer": {"class_name": "Zeros", "config": {}}, "kernel_regularizer": null, "bias_regularizer": null, "activity_regularizer": null, "kernel_constraint": null, "bias_constraint": null}, "inbound_nodes": [[["padding4b34_branch2b2", 0, 0, {}]]]}, {"name": "bn4b34_branch2b2", "class_name": "BatchNormalization", "config": {"name": "bn4b34_branch2b2", "trainable": false, "axis": 3, "momentum": 0.99, "epsilon": 1e-05, "center": true, "scale": true, "beta_initializer": {"class_name": "Zeros", "config": {}}, "gamma_initializer": {"class_name": "Ones", "config": {}}, "moving_mean_initializer": {"class_name": "Zeros", "config": {}}, "moving_variance_initializer": {"class_name": "Ones", "config": {}}, "beta_regularizer": null, "gamma_regularizer": null, "beta_constraint": null, "gamma_constraint": null, "freeze": true}, "inbound_nodes": [[["res4b34_branch2b2", 0, 0, {}]]]}, {"name": "res4b34_branch2b_relu2", "class_name": "Activation", "config": {"name": "res4b34_branch2b_relu2", "trainable": true, "activation": "relu"}, "inbound_nodes": [[["bn4b34_branch2b2", 0, 0, {}]]]}, {"name": "res4b34_branch2c2", "class_name": "Conv2D", "config": {"name": "res4b34_branch2c2", "trainable": true, "filters": 1024, "kernel_size": [1, 1], "strides": [1, 1], "padding": "valid", "data_format": "channels_last", "dilation_rate": [1, 1], "activation": "linear", "use_bias": false, "kernel_initializer": {"class_name": "VarianceScaling", "config": {"scale": 2.0, "mode": "fan_in", "distribution": "normal", "seed": null}}, "bias_initializer": {"class_name": "Zeros", "config": {}}, "kernel_regularizer": null, "bias_regularizer": null, "activity_regularizer": null, "kernel_constraint": null, "bias_constraint": null}, "inbound_nodes": [[["res4b34_branch2b_relu2", 0, 0, {}]]]}, {"name": "bn4b34_branch2c2", "class_name": "BatchNormalization", "config": {"name": "bn4b34_branch2c2", "trainable": false, "axis": 3, "momentum": 0.99, "epsilon": 1e-05, "center": true, "scale": true, "beta_initializer": {"class_name": "Zeros", "config": {}}, "gamma_initializer": {"class_name": "Ones", "config": {}}, "moving_mean_initializer": {"class_name": "Zeros", "config": {}}, "moving_variance_initializer": {"class_name": "Ones", "config": {}}, "beta_regularizer": null, "gamma_regularizer": null, "beta_constraint": null, "gamma_constraint": null, "freeze": true}, "inbound_nodes": [[["res4b34_branch2c2", 0, 0, {}]]]}, {"name": "res4b342", "class_name": "Add", "config": {"name": "res4b342", "trainable": true}, "inbound_nodes": [[["bn4b34_branch2c2", 0, 0, {}], ["res4b33_relu2", 0, 0, {}]]]}, {"name": "res4b34_relu2", "class_name": "Activation", "config": {"name": "res4b34_relu2", "trainable": true, "activation": "relu"}, "inbound_nodes": [[["res4b342", 0, 0, {}]]]}, {"name": "res4b35_branch2a2", "class_name": "Conv2D", "config": {"name": "res4b35_branch2a2", "trainable": true, "filters": 256, "kernel_size": [1, 1], "strides": [1, 1], "padding": "valid", "data_format": "channels_last", "dilation_rate": [1, 1], "activation": "linear", "use_bias": false, "kernel_initializer": {"class_name": "VarianceScaling", "config": {"scale": 2.0, "mode": "fan_in", "distribution": "normal", "seed": null}}, "bias_initializer": {"class_name": "Zeros", "config": {}}, "kernel_regularizer": null, "bias_regularizer": null, "activity_regularizer": null, "kernel_constraint": null, "bias_constraint": null}, "inbound_nodes": [[["res4b34_relu2", 0, 0, {}]]]}, {"name": "bn4b35_branch2a2", "class_name": "BatchNormalization", "config": {"name": "bn4b35_branch2a2", "trainable": false, "axis": 3, "momentum": 0.99, "epsilon": 1e-05, "center": true, "scale": true, "beta_initializer": {"class_name": "Zeros", "config": {}}, "gamma_initializer": {"class_name": "Ones", "config": {}}, "moving_mean_initializer": {"class_name": "Zeros", "config": {}}, "moving_variance_initializer": {"class_name": "Ones", "config": {}}, "beta_regularizer": null, "gamma_regularizer": null, "beta_constraint": null, "gamma_constraint": null, "freeze": true}, "inbound_nodes": [[["res4b35_branch2a2", 0, 0, {}]]]}, {"name": "res4b35_branch2a_relu2", "class_name": "Activation", "config": {"name": "res4b35_branch2a_relu2", "trainable": true, "activation": "relu"}, "inbound_nodes": [[["bn4b35_branch2a2", 0, 0, {}]]]}, {"name": "padding4b35_branch2b2", "class_name": "ZeroPadding2D", "config": {"name": "padding4b35_branch2b2", "trainable": true, "padding": [[1, 1], [1, 1]], "data_format": "channels_last"}, "inbound_nodes": [[["res4b35_branch2a_relu2", 0, 0, {}]]]}, {"name": "res4b35_branch2b2", "class_name": "Conv2D", "config": {"name": "res4b35_branch2b2", "trainable": true, "filters": 256, "kernel_size": [3, 3], "strides": [1, 1], "padding": "valid", "data_format": "channels_last", "dilation_rate": [1, 1], "activation": "linear", "use_bias": false, "kernel_initializer": {"class_name": "VarianceScaling", "config": {"scale": 2.0, "mode": "fan_in", "distribution": "normal", "seed": null}}, "bias_initializer": {"class_name": "Zeros", "config": {}}, "kernel_regularizer": null, "bias_regularizer": null, "activity_regularizer": null, "kernel_constraint": null, "bias_constraint": null}, "inbound_nodes": [[["padding4b35_branch2b2", 0, 0, {}]]]}, {"name": "bn4b35_branch2b2", "class_name": "BatchNormalization", "config": {"name": "bn4b35_branch2b2", "trainable": false, "axis": 3, "momentum": 0.99, "epsilon": 1e-05, "center": true, "scale": true, "beta_initializer": {"class_name": "Zeros", "config": {}}, "gamma_initializer": {"class_name": "Ones", "config": {}}, "moving_mean_initializer": {"class_name": "Zeros", "config": {}}, "moving_variance_initializer": {"class_name": "Ones", "config": {}}, "beta_regularizer": null, "gamma_regularizer": null, "beta_constraint": null, "gamma_constraint": null, "freeze": true}, "inbound_nodes": [[["res4b35_branch2b2", 0, 0, {}]]]}, {"name": "res4b35_branch2b_relu2", "class_name": "Activation", "config": {"name": "res4b35_branch2b_relu2", "trainable": true, "activation": "relu"}, "inbound_nodes": [[["bn4b35_branch2b2", 0, 0, {}]]]}, {"name": "res4b35_branch2c2", "class_name": "Conv2D", "config": {"name": "res4b35_branch2c2", "trainable": true, "filters": 1024, "kernel_size": [1, 1], "strides": [1, 1], "padding": "valid", "data_format": "channels_last", "dilation_rate": [1, 1], "activation": "linear", "use_bias": false, "kernel_initializer": {"class_name": "VarianceScaling", "config": {"scale": 2.0, "mode": "fan_in", "distribution": "normal", "seed": null}}, "bias_initializer": {"class_name": "Zeros", "config": {}}, "kernel_regularizer": null, "bias_regularizer": null, "activity_regularizer": null, "kernel_constraint": null, "bias_constraint": null}, "inbound_nodes": [[["res4b35_branch2b_relu2", 0, 0, {}]]]}, {"name": "bn4b35_branch2c2", "class_name": "BatchNormalization", "config": {"name": "bn4b35_branch2c2", "trainable": false, "axis": 3, "momentum": 0.99, "epsilon": 1e-05, "center": true, "scale": true, "beta_initializer": {"class_name": "Zeros", "config": {}}, "gamma_initializer": {"class_name": "Ones", "config": {}}, "moving_mean_initializer": {"class_name": "Zeros", "config": {}}, "moving_variance_initializer": {"class_name": "Ones", "config": {}}, "beta_regularizer": null, "gamma_regularizer": null, "beta_constraint": null, "gamma_constraint": null, "freeze": true}, "inbound_nodes": [[["res4b35_branch2c2", 0, 0, {}]]]}, {"name": "res4b352", "class_name": "Add", "config": {"name": "res4b352", "trainable": true}, "inbound_nodes": [[["bn4b35_branch2c2", 0, 0, {}], ["res4b34_relu2", 0, 0, {}]]]}, {"name": "res4b35_relu2", "class_name": "Activation", "config": {"name": "res4b35_relu2", "trainable": true, "activation": "relu"}, "inbound_nodes": [[["res4b352", 0, 0, {}]]]}, {"name": "res5a_branch2a2", "class_name": "Conv2D", "config": {"name": "res5a_branch2a2", "trainable": true, "filters": 512, "kernel_size": [1, 1], "strides": [2, 2], "padding": "valid", "data_format": "channels_last", "dilation_rate": [1, 1], "activation": "linear", "use_bias": false, "kernel_initializer": {"class_name": "VarianceScaling", "config": {"scale": 2.0, "mode": "fan_in", "distribution": "normal", "seed": null}}, "bias_initializer": {"class_name": "Zeros", "config": {}}, "kernel_regularizer": null, "bias_regularizer": null, "activity_regularizer": null, "kernel_constraint": null, "bias_constraint": null}, "inbound_nodes": [[["res4b35_relu2", 0, 0, {}]]]}, {"name": "bn5a_branch2a2", "class_name": "BatchNormalization", "config": {"name": "bn5a_branch2a2", "trainable": false, "axis": 3, "momentum": 0.99, "epsilon": 1e-05, "center": true, "scale": true, "beta_initializer": {"class_name": "Zeros", "config": {}}, "gamma_initializer": {"class_name": "Ones", "config": {}}, "moving_mean_initializer": {"class_name": "Zeros", "config": {}}, "moving_variance_initializer": {"class_name": "Ones", "config": {}}, "beta_regularizer": null, "gamma_regularizer": null, "beta_constraint": null, "gamma_constraint": null, "freeze": true}, "inbound_nodes": [[["res5a_branch2a2", 0, 0, {}]]]}, {"name": "res5a_branch2a_relu2", "class_name": "Activation", "config": {"name": "res5a_branch2a_relu2", "trainable": true, "activation": "relu"}, "inbound_nodes": [[["bn5a_branch2a2", 0, 0, {}]]]}, {"name": "padding5a_branch2b2", "class_name": "ZeroPadding2D", "config": {"name": "padding5a_branch2b2", "trainable": true, "padding": [[1, 1], [1, 1]], "data_format": "channels_last"}, "inbound_nodes": [[["res5a_branch2a_relu2", 0, 0, {}]]]}, {"name": "res5a_branch2b2", "class_name": "Conv2D", "config": {"name": "res5a_branch2b2", "trainable": true, "filters": 512, "kernel_size": [3, 3], "strides": [1, 1], "padding": "valid", "data_format": "channels_last", "dilation_rate": [1, 1], "activation": "linear", "use_bias": false, "kernel_initializer": {"class_name": "VarianceScaling", "config": {"scale": 2.0, "mode": "fan_in", "distribution": "normal", "seed": null}}, "bias_initializer": {"class_name": "Zeros", "config": {}}, "kernel_regularizer": null, "bias_regularizer": null, "activity_regularizer": null, "kernel_constraint": null, "bias_constraint": null}, "inbound_nodes": [[["padding5a_branch2b2", 0, 0, {}]]]}, {"name": "bn5a_branch2b2", "class_name": "BatchNormalization", "config": {"name": "bn5a_branch2b2", "trainable": false, "axis": 3, "momentum": 0.99, "epsilon": 1e-05, "center": true, "scale": true, "beta_initializer": {"class_name": "Zeros", "config": {}}, "gamma_initializer": {"class_name": "Ones", "config": {}}, "moving_mean_initializer": {"class_name": "Zeros", "config": {}}, "moving_variance_initializer": {"class_name": "Ones", "config": {}}, "beta_regularizer": null, "gamma_regularizer": null, "beta_constraint": null, "gamma_constraint": null, "freeze": true}, "inbound_nodes": [[["res5a_branch2b2", 0, 0, {}]]]}, {"name": "res5a_branch2b_relu2", "class_name": "Activation", "config": {"name": "res5a_branch2b_relu2", "trainable": true, "activation": "relu"}, "inbound_nodes": [[["bn5a_branch2b2", 0, 0, {}]]]}, {"name": "res5a_branch2c2", "class_name": "Conv2D", "config": {"name": "res5a_branch2c2", "trainable": true, "filters": 2048, "kernel_size": [1, 1], "strides": [1, 1], "padding": "valid", "data_format": "channels_last", "dilation_rate": [1, 1], "activation": "linear", "use_bias": false, "kernel_initializer": {"class_name": "VarianceScaling", "config": {"scale": 2.0, "mode": "fan_in", "distribution": "normal", "seed": null}}, "bias_initializer": {"class_name": "Zeros", "config": {}}, "kernel_regularizer": null, "bias_regularizer": null, "activity_regularizer": null, "kernel_constraint": null, "bias_constraint": null}, "inbound_nodes": [[["res5a_branch2b_relu2", 0, 0, {}]]]}, {"name": "res5a_branch12", "class_name": "Conv2D", "config": {"name": "res5a_branch12", "trainable": true, "filters": 2048, "kernel_size": [1, 1], "strides": [2, 2], "padding": "valid", "data_format": "channels_last", "dilation_rate": [1, 1], "activation": "linear", "use_bias": false, "kernel_initializer": {"class_name": "VarianceScaling", "config": {"scale": 2.0, "mode": "fan_in", "distribution": "normal", "seed": null}}, "bias_initializer": {"class_name": "Zeros", "config": {}}, "kernel_regularizer": null, "bias_regularizer": null, "activity_regularizer": null, "kernel_constraint": null, "bias_constraint": null}, "inbound_nodes": [[["res4b35_relu2", 0, 0, {}]]]}, {"name": "bn5a_branch2c2", "class_name": "BatchNormalization", "config": {"name": "bn5a_branch2c2", "trainable": false, "axis": 3, "momentum": 0.99, "epsilon": 1e-05, "center": true, "scale": true, "beta_initializer": {"class_name": "Zeros", "config": {}}, "gamma_initializer": {"class_name": "Ones", "config": {}}, "moving_mean_initializer": {"class_name": "Zeros", "config": {}}, "moving_variance_initializer": {"class_name": "Ones", "config": {}}, "beta_regularizer": null, "gamma_regularizer": null, "beta_constraint": null, "gamma_constraint": null, "freeze": true}, "inbound_nodes": [[["res5a_branch2c2", 0, 0, {}]]]}, {"name": "bn5a_branch12", "class_name": "BatchNormalization", "config": {"name": "bn5a_branch12", "trainable": false, "axis": 3, "momentum": 0.99, "epsilon": 1e-05, "center": true, "scale": true, "beta_initializer": {"class_name": "Zeros", "config": {}}, "gamma_initializer": {"class_name": "Ones", "config": {}}, "moving_mean_initializer": {"class_name": "Zeros", "config": {}}, "moving_variance_initializer": {"class_name": "Ones", "config": {}}, "beta_regularizer": null, "gamma_regularizer": null, "beta_constraint": null, "gamma_constraint": null, "freeze": true}, "inbound_nodes": [[["res5a_branch12", 0, 0, {}]]]}, {"name": "res5a2", "class_name": "Add", "config": {"name": "res5a2", "trainable": true}, "inbound_nodes": [[["bn5a_branch2c2", 0, 0, {}], ["bn5a_branch12", 0, 0, {}]]]}, {"name": "res5a_relu2", "class_name": "Activation", "config": {"name": "res5a_relu2", "trainable": true, "activation": "relu"}, "inbound_nodes": [[["res5a2", 0, 0, {}]]]}, {"name": "res5b_branch2a2", "class_name": "Conv2D", "config": {"name": "res5b_branch2a2", "trainable": true, "filters": 512, "kernel_size": [1, 1], "strides": [1, 1], "padding": "valid", "data_format": "channels_last", "dilation_rate": [1, 1], "activation": "linear", "use_bias": false, "kernel_initializer": {"class_name": "VarianceScaling", "config": {"scale": 2.0, "mode": "fan_in", "distribution": "normal", "seed": null}}, "bias_initializer": {"class_name": "Zeros", "config": {}}, "kernel_regularizer": null, "bias_regularizer": null, "activity_regularizer": null, "kernel_constraint": null, "bias_constraint": null}, "inbound_nodes": [[["res5a_relu2", 0, 0, {}]]]}, {"name": "bn5b_branch2a2", "class_name": "BatchNormalization", "config": {"name": "bn5b_branch2a2", "trainable": false, "axis": 3, "momentum": 0.99, "epsilon": 1e-05, "center": true, "scale": true, "beta_initializer": {"class_name": "Zeros", "config": {}}, "gamma_initializer": {"class_name": "Ones", "config": {}}, "moving_mean_initializer": {"class_name": "Zeros", "config": {}}, "moving_variance_initializer": {"class_name": "Ones", "config": {}}, "beta_regularizer": null, "gamma_regularizer": null, "beta_constraint": null, "gamma_constraint": null, "freeze": true}, "inbound_nodes": [[["res5b_branch2a2", 0, 0, {}]]]}, {"name": "res5b_branch2a_relu2", "class_name": "Activation", "config": {"name": "res5b_branch2a_relu2", "trainable": true, "activation": "relu"}, "inbound_nodes": [[["bn5b_branch2a2", 0, 0, {}]]]}, {"name": "padding5b_branch2b2", "class_name": "ZeroPadding2D", "config": {"name": "padding5b_branch2b2", "trainable": true, "padding": [[1, 1], [1, 1]], "data_format": "channels_last"}, "inbound_nodes": [[["res5b_branch2a_relu2", 0, 0, {}]]]}, {"name": "res5b_branch2b2", "class_name": "Conv2D", "config": {"name": "res5b_branch2b2", "trainable": true, "filters": 512, "kernel_size": [3, 3], "strides": [1, 1], "padding": "valid", "data_format": "channels_last", "dilation_rate": [1, 1], "activation": "linear", "use_bias": false, "kernel_initializer": {"class_name": "VarianceScaling", "config": {"scale": 2.0, "mode": "fan_in", "distribution": "normal", "seed": null}}, "bias_initializer": {"class_name": "Zeros", "config": {}}, "kernel_regularizer": null, "bias_regularizer": null, "activity_regularizer": null, "kernel_constraint": null, "bias_constraint": null}, "inbound_nodes": [[["padding5b_branch2b2", 0, 0, {}]]]}, {"name": "bn5b_branch2b2", "class_name": "BatchNormalization", "config": {"name": "bn5b_branch2b2", "trainable": false, "axis": 3, "momentum": 0.99, "epsilon": 1e-05, "center": true, "scale": true, "beta_initializer": {"class_name": "Zeros", "config": {}}, "gamma_initializer": {"class_name": "Ones", "config": {}}, "moving_mean_initializer": {"class_name": "Zeros", "config": {}}, "moving_variance_initializer": {"class_name": "Ones", "config": {}}, "beta_regularizer": null, "gamma_regularizer": null, "beta_constraint": null, "gamma_constraint": null, "freeze": true}, "inbound_nodes": [[["res5b_branch2b2", 0, 0, {}]]]}, {"name": "res5b_branch2b_relu2", "class_name": "Activation", "config": {"name": "res5b_branch2b_relu2", "trainable": true, "activation": "relu"}, "inbound_nodes": [[["bn5b_branch2b2", 0, 0, {}]]]}, {"name": "res5b_branch2c2", "class_name": "Conv2D", "config": {"name": "res5b_branch2c2", "trainable": true, "filters": 2048, "kernel_size": [1, 1], "strides": [1, 1], "padding": "valid", "data_format": "channels_last", "dilation_rate": [1, 1], "activation": "linear", "use_bias": false, "kernel_initializer": {"class_name": "VarianceScaling", "config": {"scale": 2.0, "mode": "fan_in", "distribution": "normal", "seed": null}}, "bias_initializer": {"class_name": "Zeros", "config": {}}, "kernel_regularizer": null, "bias_regularizer": null, "activity_regularizer": null, "kernel_constraint": null, "bias_constraint": null}, "inbound_nodes": [[["res5b_branch2b_relu2", 0, 0, {}]]]}, {"name": "bn5b_branch2c2", "class_name": "BatchNormalization", "config": {"name": "bn5b_branch2c2", "trainable": false, "axis": 3, "momentum": 0.99, "epsilon": 1e-05, "center": true, "scale": true, "beta_initializer": {"class_name": "Zeros", "config": {}}, "gamma_initializer": {"class_name": "Ones", "config": {}}, "moving_mean_initializer": {"class_name": "Zeros", "config": {}}, "moving_variance_initializer": {"class_name": "Ones", "config": {}}, "beta_regularizer": null, "gamma_regularizer": null, "beta_constraint": null, "gamma_constraint": null, "freeze": true}, "inbound_nodes": [[["res5b_branch2c2", 0, 0, {}]]]}, {"name": "res5b2", "class_name": "Add", "config": {"name": "res5b2", "trainable": true}, "inbound_nodes": [[["bn5b_branch2c2", 0, 0, {}], ["res5a_relu2", 0, 0, {}]]]}, {"name": "res5b_relu2", "class_name": "Activation", "config": {"name": "res5b_relu2", "trainable": true, "activation": "relu"}, "inbound_nodes": [[["res5b2", 0, 0, {}]]]}, {"name": "res5c_branch2a2", "class_name": "Conv2D", "config": {"name": "res5c_branch2a2", "trainable": true, "filters": 512, "kernel_size": [1, 1], "strides": [1, 1], "padding": "valid", "data_format": "channels_last", "dilation_rate": [1, 1], "activation": "linear", "use_bias": false, "kernel_initializer": {"class_name": "VarianceScaling", "config": {"scale": 2.0, "mode": "fan_in", "distribution": "normal", "seed": null}}, "bias_initializer": {"class_name": "Zeros", "config": {}}, "kernel_regularizer": null, "bias_regularizer": null, "activity_regularizer": null, "kernel_constraint": null, "bias_constraint": null}, "inbound_nodes": [[["res5b_relu2", 0, 0, {}]]]}, {"name": "bn5c_branch2a2", "class_name": "BatchNormalization", "config": {"name": "bn5c_branch2a2", "trainable": false, "axis": 3, "momentum": 0.99, "epsilon": 1e-05, "center": true, "scale": true, "beta_initializer": {"class_name": "Zeros", "config": {}}, "gamma_initializer": {"class_name": "Ones", "config": {}}, "moving_mean_initializer": {"class_name": "Zeros", "config": {}}, "moving_variance_initializer": {"class_name": "Ones", "config": {}}, "beta_regularizer": null, "gamma_regularizer": null, "beta_constraint": null, "gamma_constraint": null, "freeze": true}, "inbound_nodes": [[["res5c_branch2a2", 0, 0, {}]]]}, {"name": "res5c_branch2a_relu2", "class_name": "Activation", "config": {"name": "res5c_branch2a_relu2", "trainable": true, "activation": "relu"}, "inbound_nodes": [[["bn5c_branch2a2", 0, 0, {}]]]}, {"name": "padding5c_branch2b2", "class_name": "ZeroPadding2D", "config": {"name": "padding5c_branch2b2", "trainable": true, "padding": [[1, 1], [1, 1]], "data_format": "channels_last"}, "inbound_nodes": [[["res5c_branch2a_relu2", 0, 0, {}]]]}, {"name": "res5c_branch2b2", "class_name": "Conv2D", "config": {"name": "res5c_branch2b2", "trainable": true, "filters": 512, "kernel_size": [3, 3], "strides": [1, 1], "padding": "valid", "data_format": "channels_last", "dilation_rate": [1, 1], "activation": "linear", "use_bias": false, "kernel_initializer": {"class_name": "VarianceScaling", "config": {"scale": 2.0, "mode": "fan_in", "distribution": "normal", "seed": null}}, "bias_initializer": {"class_name": "Zeros", "config": {}}, "kernel_regularizer": null, "bias_regularizer": null, "activity_regularizer": null, "kernel_constraint": null, "bias_constraint": null}, "inbound_nodes": [[["padding5c_branch2b2", 0, 0, {}]]]}, {"name": "bn5c_branch2b2", "class_name": "BatchNormalization", "config": {"name": "bn5c_branch2b2", "trainable": false, "axis": 3, "momentum": 0.99, "epsilon": 1e-05, "center": true, "scale": true, "beta_initializer": {"class_name": "Zeros", "config": {}}, "gamma_initializer": {"class_name": "Ones", "config": {}}, "moving_mean_initializer": {"class_name": "Zeros", "config": {}}, "moving_variance_initializer": {"class_name": "Ones", "config": {}}, "beta_regularizer": null, "gamma_regularizer": null, "beta_constraint": null, "gamma_constraint": null, "freeze": true}, "inbound_nodes": [[["res5c_branch2b2", 0, 0, {}]]]}, {"name": "res5c_branch2b_relu2", "class_name": "Activation", "config": {"name": "res5c_branch2b_relu2", "trainable": true, "activation": "relu"}, "inbound_nodes": [[["bn5c_branch2b2", 0, 0, {}]]]}, {"name": "res5c_branch2c2", "class_name": "Conv2D", "config": {"name": "res5c_branch2c2", "trainable": true, "filters": 2048, "kernel_size": [1, 1], "strides": [1, 1], "padding": "valid", "data_format": "channels_last", "dilation_rate": [1, 1], "activation": "linear", "use_bias": false, "kernel_initializer": {"class_name": "VarianceScaling", "config": {"scale": 2.0, "mode": "fan_in", "distribution": "normal", "seed": null}}, "bias_initializer": {"class_name": "Zeros", "config": {}}, "kernel_regularizer": null, "bias_regularizer": null, "activity_regularizer": null, "kernel_constraint": null, "bias_constraint": null}, "inbound_nodes": [[["res5c_branch2b_relu2", 0, 0, {}]]]}, {"name": "bn5c_branch2c2", "class_name": "BatchNormalization", "config": {"name": "bn5c_branch2c2", "trainable": false, "axis": 3, "momentum": 0.99, "epsilon": 1e-05, "center": true, "scale": true, "beta_initializer": {"class_name": "Zeros", "config": {}}, "gamma_initializer": {"class_name": "Ones", "config": {}}, "moving_mean_initializer": {"class_name": "Zeros", "config": {}}, "moving_variance_initializer": {"class_name": "Ones", "config": {}}, "beta_regularizer": null, "gamma_regularizer": null, "beta_constraint": null, "gamma_constraint": null, "freeze": true}, "inbound_nodes": [[["res5c_branch2c2", 0, 0, {}]]]}, {"name": "res5c2", "class_name": "Add", "config": {"name": "res5c2", "trainable": true}, "inbound_nodes": [[["bn5c_branch2c2", 0, 0, {}], ["res5b_relu2", 0, 0, {}]]]}, {"name": "res5c_relu2", "class_name": "Activation", "config": {"name": "res5c_relu2", "trainable": true, "activation": "relu"}, "inbound_nodes": [[["res5c2", 0, 0, {}]]]}, {"name": "C5_reduced2", "class_name": "Conv2D", "config": {"name": "C5_reduced2", "trainable": true, "filters": 256, "kernel_size": [1, 1], "strides": [1, 1], "padding": "same", "data_format": "channels_last", "dilation_rate": [1, 1], "activation": "linear", "use_bias": true, "kernel_initializer": {"class_name": "VarianceScaling", "config": {"scale": 1.0, "mode": "fan_avg", "distribution": "uniform", "seed": null}}, "bias_initializer": {"class_name": "Zeros", "config": {}}, "kernel_regularizer": null, "bias_regularizer": null, "activity_regularizer": null, "kernel_constraint": null, "bias_constraint": null}, "inbound_nodes": [[["res5c_relu2", 0, 0, {}]]]}, {"name": "P5_upsampled2", "class_name": "UpsampleLike", "config": {"name": "P5_upsampled2", "trainable": true}, "inbound_nodes": [[["C5_reduced2", 0, 0, {}], ["res4b35_relu2", 0, 0, {}]]]}, {"name": "C4_reduced2", "class_name": "Conv2D", "config": {"name": "C4_reduced2", "trainable": true, "filters": 256, "kernel_size": [1, 1], "strides": [1, 1], "padding": "same", "data_format": "channels_last", "dilation_rate": [1, 1], "activation": "linear", "use_bias": true, "kernel_initializer": {"class_name": "VarianceScaling", "config": {"scale": 1.0, "mode": "fan_avg", "distribution": "uniform", "seed": null}}, "bias_initializer": {"class_name": "Zeros", "config": {}}, "kernel_regularizer": null, "bias_regularizer": null, "activity_regularizer": null, "kernel_constraint": null, "bias_constraint": null}, "inbound_nodes": [[["res4b35_relu2", 0, 0, {}]]]}, {"name": "P4_merged2", "class_name": "Add", "config": {"name": "P4_merged2", "trainable": true}, "inbound_nodes": [[["P5_upsampled2", 0, 0, {}], ["C4_reduced2", 0, 0, {}]]]}, {"name": "P4_upsampled2", "class_name": "UpsampleLike", "config": {"name": "P4_upsampled2", "trainable": true}, "inbound_nodes": [[["P4_merged2", 0, 0, {}], ["res3b7_relu2", 0, 0, {}]]]}, {"name": "C3_reduced2", "class_name": "Conv2D", "config": {"name": "C3_reduced2", "trainable": true, "filters": 256, "kernel_size": [1, 1], "strides": [1, 1], "padding": "same", "data_format": "channels_last", "dilation_rate": [1, 1], "activation": "linear", "use_bias": true, "kernel_initializer": {"class_name": "VarianceScaling", "config": {"scale": 1.0, "mode": "fan_avg", "distribution": "uniform", "seed": null}}, "bias_initializer": {"class_name": "Zeros", "config": {}}, "kernel_regularizer": null, "bias_regularizer": null, "activity_regularizer": null, "kernel_constraint": null, "bias_constraint": null}, "inbound_nodes": [[["res3b7_relu2", 0, 0, {}]]]}, {"name": "P62", "class_name": "Conv2D", "config": {"name": "P62", "trainable": true, "filters": 256, "kernel_size": [3, 3], "strides": [2, 2], "padding": "same", "data_format": "channels_last", "dilation_rate": [1, 1], "activation": "linear", "use_bias": true, "kernel_initializer": {"class_name": "VarianceScaling", "config": {"scale": 1.0, "mode": "fan_avg", "distribution": "uniform", "seed": null}}, "bias_initializer": {"class_name": "Zeros", "config": {}}, "kernel_regularizer": null, "bias_regularizer": null, "activity_regularizer": null, "kernel_constraint": null, "bias_constraint": null}, "inbound_nodes": [[["res5c_relu2", 0, 0, {}]]]}, {"name": "P3_merged2", "class_name": "Add", "config": {"name": "P3_merged2", "trainable": true}, "inbound_nodes": [[["P4_upsampled2", 0, 0, {}], ["C3_reduced2", 0, 0, {}]]]}, {"name": "C6_relu2", "class_name": "Activation", "config": {"name": "C6_relu2", "trainable": true, "activation": "relu"}, "inbound_nodes": [[["P62", 0, 0, {}]]]}, {"name": "P32", "class_name": "Conv2D", "config": {"name": "P32", "trainable": true, "filters": 256, "kernel_size": [3, 3], "strides": [1, 1], "padding": "same", "data_format": "channels_last", "dilation_rate": [1, 1], "activation": "linear", "use_bias": true, "kernel_initializer": {"class_name": "VarianceScaling", "config": {"scale": 1.0, "mode": "fan_avg", "distribution": "uniform", "seed": null}}, "bias_initializer": {"class_name": "Zeros", "config": {}}, "kernel_regularizer": null, "bias_regularizer": null, "activity_regularizer": null, "kernel_constraint": null, "bias_constraint": null}, "inbound_nodes": [[["P3_merged2", 0, 0, {}]]]}, {"name": "P42", "class_name": "Conv2D", "config": {"name": "P42", "trainable": true, "filters": 256, "kernel_size": [3, 3], "strides": [1, 1], "padding": "same", "data_format": "channels_last", "dilation_rate": [1, 1], "activation": "linear", "use_bias": true, "kernel_initializer": {"class_name": "VarianceScaling", "config": {"scale": 1.0, "mode": "fan_avg", "distribution": "uniform", "seed": null}}, "bias_initializer": {"class_name": "Zeros", "config": {}}, "kernel_regularizer": null, "bias_regularizer": null, "activity_regularizer": null, "kernel_constraint": null, "bias_constraint": null}, "inbound_nodes": [[["P4_merged2", 0, 0, {}]]]}, {"name": "P52", "class_name": "Conv2D", "config": {"name": "P52", "trainable": true, "filters": 256, "kernel_size": [3, 3], "strides": [1, 1], "padding": "same", "data_format": "channels_last", "dilation_rate": [1, 1], "activation": "linear", "use_bias": true, "kernel_initializer": {"class_name": "VarianceScaling", "config": {"scale": 1.0, "mode": "fan_avg", "distribution": "uniform", "seed": null}}, "bias_initializer": {"class_name": "Zeros", "config": {}}, "kernel_regularizer": null, "bias_regularizer": null, "activity_regularizer": null, "kernel_constraint": null, "bias_constraint": null}, "inbound_nodes": [[["C5_reduced2", 0, 0, {}]]]}, {"name": "P72", "class_name": "Conv2D", "config": {"name": "P72", "trainable": true, "filters": 256, "kernel_size": [3, 3], "strides": [2, 2], "padding": "same", "data_format": "channels_last", "dilation_rate": [1, 1], "activation": "linear", "use_bias": true, "kernel_initializer": {"class_name": "VarianceScaling", "config": {"scale": 1.0, "mode": "fan_avg", "distribution": "uniform", "seed": null}}, "bias_initializer": {"class_name": "Zeros", "config": {}}, "kernel_regularizer": null, "bias_regularizer": null, "activity_regularizer": null, "kernel_constraint": null, "bias_constraint": null}, "inbound_nodes": [[["C6_relu2", 0, 0, {}]]]}, {"name": "regression_submodel2", "class_name": "Model", "config": {"name": "regression_submodel2", "layers": [{"name": "input_2", "class_name": "InputLayer", "config": {"batch_input_shape": [null, null, null, 256], "dtype": "float32", "sparse": false, "name": "input_2"}, "inbound_nodes": []}, {"name": "pyramid_regression_0", "class_name": "Conv2D", "config": {"name": "pyramid_regression_0", "trainable": true, "filters": 256, "kernel_size": [3, 3], "strides": [1, 1], "padding": "same", "data_format": "channels_last", "dilation_rate": [1, 1], "activation": "relu", "use_bias": true, "kernel_initializer": {"class_name": "RandomNormal", "config": {"mean": 0.0, "stddev": 0.01, "seed": null}}, "bias_initializer": {"class_name": "Zeros", "config": {}}, "kernel_regularizer": null, "bias_regularizer": null, "activity_regularizer": null, "kernel_constraint": null, "bias_constraint": null}, "inbound_nodes": [[["input_2", 0, 0, {}]]]}, {"name": "pyramid_regression_1", "class_name": "Conv2D", "config": {"name": "pyramid_regression_1", "trainable": true, "filters": 256, "kernel_size": [3, 3], "strides": [1, 1], "padding": "same", "data_format": "channels_last", "dilation_rate": [1, 1], "activation": "relu", "use_bias": true, "kernel_initializer": {"class_name": "RandomNormal", "config": {"mean": 0.0, "stddev": 0.01, "seed": null}}, "bias_initializer": {"class_name": "Zeros", "config": {}}, "kernel_regularizer": null, "bias_regularizer": null, "activity_regularizer": null, "kernel_constraint": null, "bias_constraint": null}, "inbound_nodes": [[["pyramid_regression_0", 0, 0, {}]]]}, {"name": "pyramid_regression_2", "class_name": "Conv2D", "config": {"name": "pyramid_regression_2", "trainable": true, "filters": 256, "kernel_size": [3, 3], "strides": [1, 1], "padding": "same", "data_format": "channels_last", "dilation_rate": [1, 1], "activation": "relu", "use_bias": true, "kernel_initializer": {"class_name": "RandomNormal", "config": {"mean": 0.0, "stddev": 0.01, "seed": null}}, "bias_initializer": {"class_name": "Zeros", "config": {}}, "kernel_regularizer": null, "bias_regularizer": null, "activity_regularizer": null, "kernel_constraint": null, "bias_constraint": null}, "inbound_nodes": [[["pyramid_regression_1", 0, 0, {}]]]}, {"name": "pyramid_regression_3", "class_name": "Conv2D", "config": {"name": "pyramid_regression_3", "trainable": true, "filters": 256, "kernel_size": [3, 3], "strides": [1, 1], "padding": "same", "data_format": "channels_last", "dilation_rate": [1, 1], "activation": "relu", "use_bias": true, "kernel_initializer": {"class_name": "RandomNormal", "config": {"mean": 0.0, "stddev": 0.01, "seed": null}}, "bias_initializer": {"class_name": "Zeros", "config": {}}, "kernel_regularizer": null, "bias_regularizer": null, "activity_regularizer": null, "kernel_constraint": null, "bias_constraint": null}, "inbound_nodes": [[["pyramid_regression_2", 0, 0, {}]]]}, {"name": "pyramid_regression", "class_name": "Conv2D", "config": {"name": "pyramid_regression", "trainable": true, "filters": 36, "kernel_size": [3, 3], "strides": [1, 1], "padding": "same", "data_format": "channels_last", "dilation_rate": [1, 1], "activation": "linear", "use_bias": true, "kernel_initializer": {"class_name": "RandomNormal", "config": {"mean": 0.0, "stddev": 0.01, "seed": null}}, "bias_initializer": {"class_name": "Zeros", "config": {}}, "kernel_regularizer": null, "bias_regularizer": null, "activity_regularizer": null, "kernel_constraint": null, "bias_constraint": null}, "inbound_nodes": [[["pyramid_regression_3", 0, 0, {}]]]}, {"name": "pyramid_regression_reshape", "class_name": "Reshape", "config": {"name": "pyramid_regression_reshape", "trainable": true, "target_shape": [-1, 4]}, "inbound_nodes": [[["pyramid_regression", 0, 0, {}]]]}], "input_layers": [["input_2", 0, 0]], "output_layers": [["pyramid_regression_reshape", 0, 0]]}, "inbound_nodes": [[["P32", 0, 0, {}]], [["P42", 0, 0, {}]], [["P52", 0, 0, {}]], [["P62", 0, 0, {}]], [["P72", 0, 0, {}]]]}, {"name": "classification_submodel2", "class_name": "Model", "config": {"name": "classification_submodel2", "layers": [{"name": "input_3", "class_name": "InputLayer", "config": {"batch_input_shape": [null, null, null, 256], "dtype": "float32", "sparse": false, "name": "input_3"}, "inbound_nodes": []}, {"name": "pyramid_classification_0", "class_name": "Conv2D", "config": {"name": "pyramid_classification_0", "trainable": true, "filters": 256, "kernel_size": [3, 3], "strides": [1, 1], "padding": "same", "data_format": "channels_last", "dilation_rate": [1, 1], "activation": "relu", "use_bias": true, "kernel_initializer": {"class_name": "RandomNormal", "config": {"mean": 0.0, "stddev": 0.01, "seed": null}}, "bias_initializer": {"class_name": "Zeros", "config": {}}, "kernel_regularizer": null, "bias_regularizer": null, "activity_regularizer": null, "kernel_constraint": null, "bias_constraint": null}, "inbound_nodes": [[["input_3", 0, 0, {}]]]}, {"name": "pyramid_classification_1", "class_name": "Conv2D", "config": {"name": "pyramid_classification_1", "trainable": true, "filters": 256, "kernel_size": [3, 3], "strides": [1, 1], "padding": "same", "data_format": "channels_last", "dilation_rate": [1, 1], "activation": "relu", "use_bias": true, "kernel_initializer": {"class_name": "RandomNormal", "config": {"mean": 0.0, "stddev": 0.01, "seed": null}}, "bias_initializer": {"class_name": "Zeros", "config": {}}, "kernel_regularizer": null, "bias_regularizer": null, "activity_regularizer": null, "kernel_constraint": null, "bias_constraint": null}, "inbound_nodes": [[["pyramid_classification_0", 0, 0, {}]]]}, {"name": "pyramid_classification_2", "class_name": "Conv2D", "config": {"name": "pyramid_classification_2", "trainable": true, "filters": 256, "kernel_size": [3, 3], "strides": [1, 1], "padding": "same", "data_format": "channels_last", "dilation_rate": [1, 1], "activation": "relu", "use_bias": true, "kernel_initializer": {"class_name": "RandomNormal", "config": {"mean": 0.0, "stddev": 0.01, "seed": null}}, "bias_initializer": {"class_name": "Zeros", "config": {}}, "kernel_regularizer": null, "bias_regularizer": null, "activity_regularizer": null, "kernel_constraint": null, "bias_constraint": null}, "inbound_nodes": [[["pyramid_classification_1", 0, 0, {}]]]}, {"name": "pyramid_classification_3", "class_name": "Conv2D", "config": {"name": "pyramid_classification_3", "trainable": true, "filters": 256, "kernel_size": [3, 3], "strides": [1, 1], "padding": "same", "data_format": "channels_last", "dilation_rate": [1, 1], "activation": "relu", "use_bias": true, "kernel_initializer": {"class_name": "RandomNormal", "config": {"mean": 0.0, "stddev": 0.01, "seed": null}}, "bias_initializer": {"class_name": "Zeros", "config": {}}, "kernel_regularizer": null, "bias_regularizer": null, "activity_regularizer": null, "kernel_constraint": null, "bias_constraint": null}, "inbound_nodes": [[["pyramid_classification_2", 0, 0, {}]]]}, {"name": "pyramid_classification", "class_name": "Conv2D", "config": {"name": "pyramid_classification", "trainable": true, "filters": 36, "kernel_size": [3, 3], "strides": [1, 1], "padding": "same", "data_format": "channels_last", "dilation_rate": [1, 1], "activation": "linear", "use_bias": true, "kernel_initializer": {"class_name": "Zeros", "config": {}}, "bias_initializer": {"class_name": "PriorProbability", "config": {"probability": 0.01}}, "kernel_regularizer": null, "bias_regularizer": null, "activity_regularizer": null, "kernel_constraint": null, "bias_constraint": null}, "inbound_nodes": [[["pyramid_classification_3", 0, 0, {}]]]}, {"name": "pyramid_classification_reshape", "class_name": "Reshape", "config": {"name": "pyramid_classification_reshape", "trainable": true, "target_shape": [-1, 4]}, "inbound_nodes": [[["pyramid_classification", 0, 0, {}]]]}, {"name": "pyramid_classification_sigmoid", "class_name": "Activation", "config": {"name": "pyramid_classification_sigmoid", "trainable": true, "activation": "sigmoid"}, "inbound_nodes": [[["pyramid_classification_reshape", 0, 0, {}]]]}], "input_layers": [["input_3", 0, 0]], "output_layers": [["pyramid_classification_sigmoid", 0, 0]]}, "inbound_nodes": [[["P32", 0, 0, {}]], [["P42", 0, 0, {}]], [["P52", 0, 0, {}]], [["P62", 0, 0, {}]], [["P72", 0, 0, {}]]]}, {"name": "regression2", "class_name": "Concatenate", "config": {"name": "regression2", "trainable": true, "axis": 1}, "inbound_nodes": [[["regression_submodel2", 1, 0, {}], ["regression_submodel2", 2, 0, {}], ["regression_submodel2", 3, 0, {}], ["regression_submodel2", 4, 0, {}], ["regression_submodel2", 5, 0, {}]]]}, {"name": "classification2", "class_name": "Concatenate", "config": {"name": "classification2", "trainable": true, "axis": 1}, "inbound_nodes": [[["classification_submodel2", 1, 0, {}], ["classification_submodel2", 2, 0, {}], ["classification_submodel2", 3, 0, {}], ["classification_submodel2", 4, 0, {}], ["classification_submodel2", 5, 0, {}]]]}], "input_layers": [["input_12", 0, 0]], "output_layers": [["regression2", 0, 0], ["classification2", 0, 0]]}}
